navigation/MuJoCo-LiDAR/examples/onnx/g1_policy.onnx (onnx, 903275 bytes, 10 tensors)

obs_mean f4 [103]
0	0x3c07191e	0.0082457345
1	0xbc3b59ef	-0.011435016
2	0x3cedfffd	0.029052729
3	0x3c8755df	0.016520439
4	0xbc9c40fa	-0.019073952
5	0x3b22c052	0.002483387
6	0xbda4967a	-0.080365136
7	0xbc3d0fce	-0.011539413
8	0xbf763548	-0.9617505
9	0xbc315732	-0.010824012
10	0xbab80b90	-0.0014041532
11	0x3a852a53	0.0010159708
12	0x3c065aa9	0.008200326
13	0x3bbd8074	0.005783135
14	0xbb79a4a5	-0.003809252
15	0x3d901a0c	0.07036218
16	0xbd86ed47	-0.06588226
17	0xbb9c7c21	-0.0047755395
18	0x3a0c9e42	0.00053641584
19	0xba8fe481	-0.0010978134
20	0x3b6ad4b5	0.003583235
21	0x3d97c640	0.0741086
22	0xbd7d85fc	-0.061895356
23	0xbc11dcb6	-0.008902719
24	0xbbae4363	-0.0053180917
25	0xbc6b9a7c	-0.014380094
26	0x3ce0fbdf	0.027463851
27	0xbce06e94	-0.027396478
28	0x3d1c3280	0.038134098
29	0xbbf6f009	-0.0075359386
30	0x3cf52b7a	0.029927958
31	0x3ae50cce	0.001747513
32	0x3d391784	0.045188442
33	0x3b3550bc	0.002766653
34	0xbc3145b3	-0.01081984
35	0xbc7fee54	-0.015620787
36	0xbc9819cf	-0.018566994
37	0x3b86d394	0.0041145775
38	0xba29b5e7	-0.0006473944
39	0x3cd903ef	0.026491133
40	0x3bc44d76	0.0059906794
41	0x3c06a028	0.008216895
42	0xbcf7c430	-0.030244917
43	0x3cbac50b	0.022799036
44	0x3b0ad046	0.002118127
45	0xbd25f782	-0.040519245
46	0x3c74be55	0.014937957
47	0x3bb02fd0	0.0053767934
48	0x3d10e891	0.035378043
49	0xbcb7013b	-0.022339454
50	0x3bd47877	0.006484087
51	0xbcf17f0a	-0.029479522
52	0xbc484533	-0.01222353
53	0x3ba94174	0.0051652733
54	0xbca1af8a	-0.019737024
55	0xbcb722c0	-0.022355437
56	0xbd985fb9	-0.07440133
57	0xbbce5fda	-0.0062980475
58	0x3d1c999c	0.03823243
59	0x3c9a595c	0.018841438
60	0x3b514431	0.0031931514
61	0x3ba55e6c	0.0050466564
62	0x3b8c4cdf	0.0042816247
63	0xbdd07083	-0.1017771
64	0xbc167e62	-0.009185405
65	0xbb073320	-0.0020629838
66	0x3d90bf87	0.07067781
67	0x38b849be	8.787539e-05
68	0x3c03f6c4	0.008054439
69	0xbac74621	-0.0015203395
70	0x3be6ff6c	0.0070494916
71	0x3e48311a	0.19549981
72	0xbdff0c45	-0.12453512
73	0xbe419e99	-0.18908156
74	0xbdac0041	-0.08398486
75	0xbbc855bb	-0.0061137355
76	0xbaf156d9	-0.0018412723
77	0xbe566bc6	-0.2093955
78	0x3e104199	0.14087524
79	0xbe55cea0	-0.20879602
80	0xbdae636b	-0.08515056
81	0x3ac7768d	0.0015217826
82	0xbc3b7c00	-0.011443138
83	0xbccac9c0	-0.024754405
84	0x3c2245ba	0.009904319
85	0xbd7aee93	-0.06126268
86	0x3dd657b1	0.104659446
87	0xbba0cbe8	-0.00490712
88	0x3d021cdc	0.031765804
89	0x3a57f616	0.0008238269
90	0xbd6031c0	-0.054734945
91	0x3c85c208	0.016327873
92	0xbced3b8e	-0.028959062
93	0xbd7375c5	-0.059438486
94	0xbd2d1fe0	-0.042266726
95	0xbc84665a	-0.016162086
96	0x39b976b0	0.0003537438
97	0xbdce035b	-0.10059234
98	0x3bfe709e	0.00776489
99	0x3bc27d9f	0.0059353854
100	0xbbc27e18	-0.0059354417
101	0x3b93abc3	0.0045065596
102	0xbb93abc9	-0.0045065624

obs_std f4 [103]
0	0x3f3b5c8b	0.73188084
1	0x3ebdd5d1	0.3707719
2	0x3e81c65e	0.25346655
3	0x3f95398a	1.1658185
4	0x3fdf1b7f	1.7430266
5	0x3fb790ec	1.4341102
6	0x3e5dd1a8	0.21662009
7	0x3e00b5eb	0.12569396
8	0x3db9a790	0.09065163
9	0x3f0d4616	0.5518507
10	0x3e8d18f6	0.27558106
11	0x3f0cc67a	0.5499035
12	0x3e22f666	0.15914306
13	0x3d885b92	0.06658091
14	0x3d826db2	0.06368579
15	0x3e266bd3	0.16252069
16	0x3e1e67f2	0.1546934
17	0x3e2032f6	0.1564444
18	0x3e22cc02	0.15898135
19	0x3d8bb479	0.06821532
20	0x3d7fea80	0.062479496
21	0x3e2d245c	0.16908401
22	0x3e1f9bcb	0.15586774
23	0x3e23da59	0.16001262
24	0x3deab2d0	0.11459887
25	0x3dd90689	0.105969496
26	0x3e26d1f1	0.16291024
27	0x3df3e433	0.1190876
28	0x3de347a8	0.11097652
29	0x3e07be82	0.13256267
30	0x3dfe5fc0	0.124206066
31	0x3d9c1ad4	0.076223046
32	0x3e038a5b	0.12845747
33	0x3dc6d8ff	0.097093575
34	0x3dfa8211	0.122318394
35	0x3de183ce	0.11011468
36	0x3e0605cd	0.1308815
37	0x3dfb36ee	0.122663364
38	0x3da4d76a	0.080488995
39	0x3e02512c	0.12726277
40	0x3dbbb150	0.09164679
41	0x401f682a	2.4907327
42	0x40027449	2.0383475
43	0x40390f7f	2.8915708
44	0x403d7f83	2.9609077
45	0x4055e895	3.3423207
46	0x401544e5	2.33233
47	0x401ff708	2.4994526
48	0x4002b5a1	2.0423357
49	0x4034ed9b	2.8270023
50	0x403f3ca0	2.9880753
51	0x40537bf4	3.3044405
52	0x4015d86f	2.341335
53	0x4023359f	2.5501478
54	0x3ff1b373	1.8882889
55	0x40148735	2.3207524
56	0x404b4fa5	3.176736
57	0x40447adf	3.0699995
58	0x40b6ac89	5.7085614
59	0x40af6635	5.4812264
60	0x3ff7cd0c	1.935945
61	0x408a6744	4.3251057
62	0x40318c00	2.77417
63	0x404ac05d	3.167991
64	0x4048f707	3.1400774
65	0x40b8d59d	5.776076
66	0x40ae6c74	5.450739
67	0x3ff9dbe1	1.9520227
68	0x4089d095	4.3067117
69	0x40318b17	2.7741144
70	0x3ee61868	0.44940495
71	0x3ee2faf8	0.443321
72	0x3ea5ed29	0.324075
73	0x3f145d2b	0.57954663
74	0x3f13c617	0.57724136
75	0x3f10e613	0.56601065
76	0x3ee8ef09	0.4549487
77	0x3eead02b	0.45861945
78	0x3ea4ad96	0.32163686
79	0x3f1586fc	0.58409095
80	0x3f11c1e1	0.5693646
81	0x3f10ddd7	0.565885
82	0x3e988160	0.29786205
83	0x3eaf430a	0.34230834
84	0x3ec4b635	0.38420263
85	0x3edbc495	0.42923418
86	0x3ee303ab	0.44338736
87	0x3ef71599	0.48258665
88	0x3ee45e32	0.44603115
89	0x3f0b47bb	0.54406327
90	0x3f0cb7bb	0.5496785
91	0x3f0d5882	0.5521318
92	0x3ee187e9	0.44049004
93	0x3ee415f0	0.44547987
94	0x3ef7e0c5	0.48413673
95	0x3ee20b67	0.44149324
96	0x3f0d0d86	0.5509876
97	0x3f0c523b	0.54812974
98	0x3f0c777f	0.54869837
99	0x3f3592ef	0.7092733
100	0x3f3592ef	0.7092733
101	0x3f3473f8	0.70489454
102	0x3f3473f8	0.70489454

mlp.0.weight f4 [512, 103]
0	0xbf09ac19	-0.53778225
1	0xbd0a16ca	-0.03371314
2	0x3e571455	0.2100385
3	0x3a6f1547	0.0009120297
4	0x3de5c829	0.11219818
5	0x3cfb8ad8	0.030705854
6	0xbeabae6d	-0.33531514
7	0x3aeca89c	0.0018055621
8	0xbe62f378	-0.22163188
9	0x3f62d66d	0.8860844
10	0x3ea27cd8	0.31735873
11	0x3e37a891	0.17935397
12	0x3c6b4ba8	0.0143613
13	0xbd979fd5	-0.074035324
14	0x3aed9158	0.0018124981
15	0x3e4ad98f	0.19809555
16	0x3dc0b47b	0.09409424
17	0x3d431738	0.047629565
18	0x3e3400fb	0.17578499
19	0x3c8e78e6	0.017391633
20	0x3b8bd88a	0.004267757
21	0x3d8cf373	0.06882372
22	0x3d2a52fd	0.04158305
23	0xbcabad7a	-0.020956744
24	0x3e056bcb	0.13029401
25	0xbdff47f8	-0.12464899
26	0x3de44220	0.11145425
27	0x3d4663fd	0.0484352
28	0xbcd5cc7c	-0.026098482
29	0x3cc9bee2	0.024627153
30	0x3c322405	0.010872846
31	0xbdbb0c6e	-0.0913323
32	0xb9aab826	-0.00032562128
33	0x3d1f2a40	0.038858652
34	0x3e4ff15d	0.20306917
35	0x3d719a20	0.058984876
36	0x3df08761	0.117445715
37	0xbc940dd0	-0.018072993
38	0xbe0fb60f	-0.14034294
39	0xbce66fe1	-0.02812952
40	0xbd0feb4c	-0.035136506
41	0xbe74fda9	-0.23924889
42	0xbd7d6d42	-0.061871774
43	0x3d912875	0.07087795
44	0x3bc8a347	0.00612298
45	0x3c302641	0.010751308
46	0xbd21e4ed	-0.03952496
47	0xbbcacd9c	-0.0061890613
48	0x3e3f7baa	0.18699518
49	0xbda30a44	-0.079609424
50	0xbe41310d	-0.18866368
51	0xbd89153f	-0.066935055
52	0x3af87cff	0.001895815
53	0xbd5f0caa	-0.054455437
54	0xbd726e3e	-0.059187166
55	0x3dca1fff	0.09869384
56	0xbe13e8c0	-0.14444256
57	0xbcb47dcd	-0.022032643
58	0xbd1af0a6	-0.037827156
59	0xbe12f2a9	-0.1435038
60	0x3d0a8098	0.033814043
61	0xbc3f46a0	-0.011674553
62	0x3b236e19	0.002493745
63	0xbbb316fc	-0.0054653864
64	0x3e2d0519	0.16896476
65	0xbc7d251b	-0.015450741
66	0x3de2676b	0.11054882
67	0x3d19e76f	0.037574228
68	0xbd40fa76	-0.04711386
69	0xbda41889	-0.08012492
70	0xbd645a47	-0.055750158
71	0x3ada47e0	0.00166535
72	0x3cb874e2	0.022516672
73	0xbddbcad7	-0.10732048
74	0x39aa3ff0	0.00032472564
75	0xbd262555	-0.040562946
76	0x3dfb67dc	0.12275669
77	0xbda6c26c	-0.08142552
78	0xbce9a9fa	-0.028523434
79	0xbcd82d2d	-0.026388729
80	0xbdd81731	-0.105512984
81	0xbdb7467a	-0.08948989
82	0xbb271128	-0.0025492404
83	0x3cb24308	0.021760479
84	0xbdc5602f	-0.09637486
85	0xbcad300e	-0.021141078
86	0xbd95625a	-0.0729415
87	0x3d216733	0.03940506
88	0x3d08d13b	0.033402663
89	0x3c428452	0.011872368
90	0x3dff97ee	0.1248015
91	0xbd2ca895	-0.04215296
92	0x3ce856e5	0.028361747
93	0x3b3b248a	0.0028555715
94	0xbda475f5	-0.08030311
95	0xbded95db	-0.11600848
96	0xbd033277	-0.03203055
97	0xbd679751	-0.05654079
98	0x3dbb10f0	0.0913409
99	0xbe04d9b1	-0.12973668
100	0xbbbeab1e	-0.0058187386
101	0x3da045ab	0.07825788
102	0xbe8ce50a	-0.27518493
103	0x3eade5f6	0.3396451
104	0xbe246b8d	-0.16056652
105	0x3d27186d	0.04079478
106	0x3e19b22d	0.15009375
107	0xbd59b8d6	-0.05315479
108	0xbd243478	-0.0400891
109	0xbe0e8d82	-0.13921168
110	0xbe2144f6	-0.15748963
111	0x3c1c1c37	0.009528211
112	0xbe1d5b52	-0.15366867
113	0xbea198c4	-0.31561863
114	0x3e99b653	0.30021915
115	0xbe4b8616	-0.19875368
116	0x3e4b98c3	0.19882493
117	0xbd73f234	-0.059557155
118	0xbe27f650	-0.16402555
119	0xbd8102fd	-0.06299398
120	0x3d59cdf7	0.05317494
121	0xbdaeadce	-0.08529244
122	0x3d3e0d01	0.04639912
123	0xbe4ebab7	-0.20188414
124	0xbca98709	-0.020694273
125	0xbe74a940	-0.23892689
126	0x3d91155c	0.07084152
127	0xbe63ca7f	-0.22245215
128	0xbd96aacb	-0.07356795
129	0xbc8e16cf	-0.01734486
130	0x3d15c6e4	0.03656663
131	0xbdceec84	-0.101037055
132	0xbb6bc5ea	-0.003597612
133	0x3d800596	0.062510654
134	0x3d9699ed	0.07353578
135	0xbcaeaaf3	-0.02132175
136	0x3dd974ed	0.10618005
137	0xbe1bdf02	-0.1522179
138	0x3d0e573a	0.034751154
139	0x3d5fb057	0.05461153
140	0xbd032767	-0.03202
141	0x3daa10a0	0.08303952
142	0x3d5ff2f1	0.054675046
143	0xbdc51e12	-0.09624876
144	0xbdb95fd2	-0.090514794
145	0x3e2fcd53	0.17168169
146	0xbe67da8d	-0.22641964
147	0x3de6423f	0.11243104
148	0x3dfc7c9d	0.123284556
149	0xbcf69a16	-0.03010277
150	0x3e00458c	0.1252653
151	0xbc22c9c3	-0.009935799
152	0xbe42d549	-0.19026674
153	0xbe82e8ec	-0.2556833
154	0x3e279c82	0.16368297
155	0x3c97b126	0.018517088
156	0x3e8c7bac	0.27438104
157	0x3d9efc8e	0.07763015
158	0xbd25f928	-0.040520817
159	0xbd53cacd	-0.051707078
160	0x3c79f25c	0.015255537
161	0xbbadd8e3	-0.005305396
162	0x3bbf65f5	0.0058410116
163	0x3d8dc285	0.06921867
164	0x3df1ab88	0.11800295
165	0x3e2c861d	0.16848035
166	0xbe19e61b	-0.15029185
167	0x3d88ed24	0.06685856
168	0x3cd0a755	0.025470415
169	0x3d8c3096	0.068452045
170	0xbe16666d	-0.1468751
171	0xbe0f99aa	-0.14023462
172	0x3dd11433	0.10208931
173	0xbdacb45e	-0.0843284
174	0xbcc8415e	-0.024445232
175	0x3bb7b46e	0.0056062257
176	0xbdc6811b	-0.09692594
177	0x3da5e71a	0.0810072
178	0xbdb0b4fd	-0.08628271
179	0x3c7d0ddc	0.015445199
180	0xbe0d9c3c	-0.1382913
181	0x3d0629bd	0.03275465
182	0xbe0ea355	-0.13929494
183	0x3e08b3f7	0.13349901
184	0xbd41e24d	-0.047334958
185	0xbd2a13fd	-0.04152297
186	0xbdbe99a3	-0.09306648
187	0xbe375de9	-0.17906918
188	0x3dae5c6e	0.08513723
189	0x3b874728	0.0041283555
190	0xbd3f0aa0	-0.046640992
191	0x3cb05a26	0.021527361
192	0xbd912810	-0.070877194
193	0xbd54e778	-0.05197856
194	0xbdd3f425	-0.10349301
195	0x3e0466af	0.12929796
196	0x3d3c20de	0.045929782
197	0x3d677dab	0.05651633
198	0x3d4774b8	0.048695296
199	0x3d70a9ec	0.0587558
200	0x3d565f44	0.052336946
201	0x3dde2943	0.10847714
202	0xbcf0091b	-0.029301217
203	0x3dd5e11a	0.10443325
204	0x3e6d3ca5	0.23167665
205	0xbd7a1fcd	-0.061065484
206	0x3c2643c9	0.010147997
207	0x3e890a2b	0.2676557
208	0xbc6779f0	-0.014128193
209	0x3dc5d0e9	0.09658987
210	0xbe67f6c1	-0.22652723
211	0xbe0664df	-0.13124417
212	0xbe4fd3b8	-0.20295608
213	0xbe880039	-0.2656267
214	0xbe2fea57	-0.17179237
215	0x3e744594	0.23854667
216	0x3e3efa12	0.18650082
217	0x3e96e116	0.29468602
218	0xbdf9a67b	-0.12189957
219	0x3defb051	0.117035516
220	0xbc3ccd4a	-0.011523554
221	0xbe5dd90d	-0.2166483
222	0xbdc6df8b	-0.09710606
223	0xbd36261a	-0.04446993
224	0x3e33fae8	0.17576182
225	0x3d4ebbe1	0.050472144
226	0xbddd9694	-0.10819736
227	0x3d6050cc	0.054764554
228	0xbdc8d2e2	-0.09805848
229	0x3dc9a50b	0.098459326
230	0xbd6112c3	-0.054949533
231	0xbdff9599	-0.12479705
232	0x3c8c0617	0.017092748
233	0xbb97337c	-0.0046142917
234	0x3dd5b24b	0.10434397
235	0xbce8b8fb	-0.028408518
236	0x3da98a92	0.08278383
237	0xbcd6c8c6	-0.026218783
238	0x3dbe383c	0.092880696
239	0xbd0a0eb5	-0.033705432
240	0xbc9431a2	-0.018090073
241	0x3d9945b6	0.074839994
242	0x3d03adb4	0.032148078
243	0x3d8b8b46	0.06813674
244	0xbe048c3e	-0.12944123
245	0xbd723829	-0.05913559
246	0xbd7e8d5f	-0.06214654
247	0xbe69cb38	-0.22831428
248	0xbcd81cf3	-0.026380992
249	0xbd747bb2	-0.059688278
250	0xbe407773	-0.18795566
251	0xbdbe8bc3	-0.09304001
252	0xbd133186	-0.0359359
253	0x3dac7da8	0.084224045
254	0x3b83a9ca	0.004018043
255	0x3ce4f40c	0.027948402

mlp.0.bias f4 [512]
0	0xbe1cb48d	-0.1530325
1	0xbdc57419	-0.096412845
2	0xbebbe207	-0.36695883
3	0xbea1488a	-0.31500655
4	0x3b0b513e	0.002125814
5	0xbea037e0	-0.3129263
6	0xbed469aa	-0.41486865
7	0xbe9dabcc	-0.30795133
8	0xbf002a5c	-0.50064635
9	0xbea43202	-0.32069403
10	0xbed41141	-0.41419414
11	0xbe8bf24c	-0.27333295
12	0xbeb302ac	-0.34962976
13	0xbe8da5a8	-0.27665448
14	0xbec748bf	-0.38922688
15	0xbf1c88c1	-0.6114617
16	0xbeaef094	-0.34167922
17	0xbf076569	-0.52889115
18	0x3d556449	0.052097593
19	0xbe4a7053	-0.19769411
20	0x3b849b9c	0.0040468704
21	0xbe320b79	-0.17387189
22	0x3d7da75a	0.061927177
23	0xbef9f83f	-0.4882221
24	0x3da27edc	0.07934353
25	0xbef29948	-0.4738257
26	0xbd943247	-0.07236152
27	0x3d18a2b6	0.03726455
28	0xbed31614	-0.41227782
29	0xbf092b32	-0.53581536
30	0xbe3b015e	-0.1826224
31	0xbe83573f	-0.256525
32	0xbe814ea0	-0.252553
33	0xbf00d1fc	-0.5032041
34	0xbe68f9f2	-0.22751597
35	0xbee10c35	-0.43954626
36	0xbee71c6e	-0.45138878
37	0xbef0914f	-0.46985862
38	0xbe71df4d	-0.23620339
39	0x3d958cd9	0.07302255
40	0xbee0c344	-0.43898976
41	0xbef60109	-0.48047665
42	0xbe9dfed8	-0.30858493
43	0xbe5bb8de	-0.2145724
44	0xbdf2b9f2	-0.118518725
45	0xbe7e3e7c	-0.24828523
46	0xbe540326	-0.20704326
47	0xbdc67130	-0.096895576
48	0xbe338885	-0.17532547
49	0xbecfcff7	-0.40588352
50	0xbe9e4aaa	-0.3091634
51	0xbe79e5a3	-0.24404006
52	0xbecbe517	-0.3982322
53	0xbe7ced8d	-0.24699993
54	0xbeb73c42	-0.3578816
55	0xbe7946a6	-0.24343356
56	0xbe1bd018	-0.152161
57	0x3c4fa4c6	0.012673562
58	0xbe9c9b48	-0.3058722
59	0xbe9e4036	-0.30908364
60	0xbc629f7b	-0.013831968
61	0xbeffcfe5	-0.49963298
62	0xbe81435f	-0.25246713
63	0xbe862c83	-0.26205835
64	0xbe191165	-0.14948042
65	0xbe9ca406	-0.3059389
66	0xbdadfe65	-0.084957875
67	0xbe911b69	-0.28341225
68	0xbe8e9c6c	-0.27853715
69	0xbec366e9	-0.38164452
70	0xbeae8090	-0.3408246
71	0xbeb63f79	-0.355953
72	0xbe84d498	-0.25943446
73	0xbebfe501	-0.37479404
74	0xbee1e38b	-0.44118914
75	0xbe3e4e7c	-0.18584627
76	0xbe2bb50e	-0.16768286
77	0xbe8da64e	-0.27665943
78	0xbe0ad7a1	-0.13558818
79	0xbe5927f2	-0.21206644
80	0xbe58c252	-0.21167877
81	0xbe73caeb	-0.23807876
82	0xbf07759b	-0.52913827
83	0xbdce4550	-0.10071814
84	0xbeba8599	-0.36430052
85	0xbeeb5125	-0.45960346
86	0xbe8fa86e	-0.2805819
87	0xbeb87bb3	-0.36031875
88	0xbee5df90	-0.44897127
89	0xbe0375f9	-0.12837972
90	0xbf0f1be9	-0.5590196
91	0xbe32c87f	-0.17459296
92	0xbeb193ab	-0.34682974
93	0xbef72f80	-0.48278427
94	0xbea3cb0c	-0.3199085
95	0xbdcab3a8	-0.09897548
96	0xbeb6adca	-0.35679466
97	0xbe8f809f	-0.28027818
98	0xbe91583f	-0.2838764
99	0xbe3f4903	-0.18680196
100	0xbf116ca7	-0.56806415
101	0xbea5379a	-0.32268983
102	0xbe93e0c5	-0.28882423
103	0xbeb8077e	-0.35943216
104	0xbe5a9354	-0.21345264
105	0x3d77b7b2	0.06047792
106	0xbe34d700	-0.17660141
107	0xbe565a34	-0.20932847
108	0xbea0b81e	-0.3139047
109	0xbe5e208e	-0.21692106
110	0xbefdd3a9	-0.49575546
111	0xbeec3c2c	-0.46139657
112	0xbec439e4	-0.38325417
113	0xbf08a532	-0.5337707
114	0xbef09832	-0.46991116
115	0xbe2f6d0e	-0.17131445
116	0xbee555ff	-0.44792172
117	0xbe886c3a	-0.2664507
118	0xbeb81cc6	-0.35959452
119	0xbd7b8e41	-0.06141496
120	0xbed116cc	-0.40837705
121	0xbef7051d	-0.4824609
122	0xbd729cc9	-0.059231553
123	0xbe40e6bd	-0.1883802
124	0xbef6dfd8	-0.48217654
125	0xbec23d0b	-0.37937197
126	0xbe935219	-0.28773573
127	0xbee6f9f3	-0.4511257
128	0xbf2e7f3d	-0.681629
129	0xbed1f387	-0.4100611
130	0xbe3e7bfd	-0.18601985
131	0xbe8a75b2	-0.2704292
132	0xbe533c73	-0.20628528
133	0xbed2df3f	-0.41185948
134	0xbea552ac	-0.32289636
135	0xbf0622c2	-0.52396786
136	0xbeb37840	-0.3505268
137	0xbea88470	-0.32913542
138	0xbeade7d8	-0.33965945
139	0xbe4d8457	-0.20070015
140	0xbebd1b2b	-0.3693479
141	0xbe722418	-0.23646581
142	0xbe5689f5	-0.20951064
143	0xbe2f531b	-0.17121546
144	0xbe686002	-0.22692874
145	0xbe5c695e	-0.2152457
146	0xbe17041c	-0.14747661
147	0xbeb1220d	-0.3459629
148	0xbf1c826f	-0.61136526
149	0xbedee97b	-0.43537506
150	0xbf03a12e	-0.51417816
151	0xbd93a9db	-0.07210132
152	0xbec96f08	-0.39342523
153	0xbe29e065	-0.16589506
154	0xbeb3f0df	-0.35144708
155	0xbf1b4cb9	-0.60663944
156	0xbf2a1cc4	-0.6645014
157	0xbddedcb1	-0.10881937
158	0xbf079519	-0.5296188
159	0xbeb9212a	-0.36158115
160	0xbe57313b	-0.21014874
161	0xbeadbd93	-0.33933696
162	0xbeb25fbd	-0.34838668
163	0xbe9b086e	-0.3027987
164	0xbf19033c	-0.5977056
165	0xbe87449f	-0.2641954
166	0xbea9560d	-0.33073464
167	0xbe0b9df5	-0.13634475
168	0xbe97e284	-0.29665005
169	0xbe8d989c	-0.27655494
170	0xbea4129c	-0.32045448
171	0xbe1a9032	-0.15094069
172	0xbf062022	-0.5239278
173	0xbd1de0a7	-0.038544323
174	0xbee007f0	-0.43756056
175	0xbeac5bd6	-0.33663815
176	0xbe071449	-0.13191332
177	0xbea51e28	-0.3224957
178	0xbe670bb0	-0.22563052
179	0xbea3879a	-0.31939393
180	0xbf01e2ab	-0.5073649
181	0xbed4a9e5	-0.4153587
182	0xbeb4602c	-0.35229623
183	0xbd8e2257	-0.069401436
184	0x3d9ccb64	0.07655981
185	0x3dd5d36a	0.10440715
186	0xbe8dd76f	-0.27703425
187	0x3df4795f	0.11937212
188	0xbea1ba54	-0.3158747
189	0xbd57da39	-0.052698348
190	0xbecc7f19	-0.39940718
191	0xbe7a4110	-0.24438882
192	0xbee2bb63	-0.4428359
193	0xbe5f77d6	-0.21823058
194	0xbde18a9a	-0.11012764
195	0xbd1049d2	-0.03522665
196	0xbf0d6cb0	-0.5524397
197	0xbd08ecb0	-0.033428848
198	0xbe5bf3d1	-0.21479727
199	0xbe2dff24	-0.1699186
200	0xbdf37c81	-0.118889816
201	0xbe9f08e4	-0.3106147
202	0xbe272777	-0.16323648
203	0xbe9a669c	-0.3015641
204	0xbe533a83	-0.20627789
205	0xbe6c49bb	-0.23075001
206	0xbe987372	-0.29775578
207	0xbe978d8e	-0.29600185
208	0xbed9de20	-0.4255228
209	0xbe2b9301	-0.16755296
210	0xbe6bc5e7	-0.23024713
211	0xbe174e95	-0.1477607
212	0xbddc133a	-0.10745855
213	0xbeb52261	-0.35377792
214	0xbecfd98f	-0.40595672
215	0xbf2653e2	-0.64971745
216	0x3c7e0032	0.015502976
217	0xbeb5d4a4	-0.35513794
218	0xbe723f5f	-0.23656987
219	0xbe773354	-0.24140674
220	0xbe82c0e9	-0.25537804
221	0xbeec850b	-0.46195254
222	0xbea78341	-0.32717326
223	0xbe8de5b1	-0.27714303
224	0xbe1f9785	-0.15585144
225	0xbd0ab1f6	-0.033861123
226	0xbeb7319f	-0.35780045
227	0xbe621bdb	-0.22080939
228	0xbf1df9e8	-0.6170945
229	0xbd5d3e4c	-0.05401449
230	0xbf007861	-0.50183684
231	0xbea1d981	-0.31611255
232	0xbe2ec4c7	-0.17067252
233	0xbee0b169	-0.43885353
234	0xbee7d2fb	-0.45278153
235	0xbedff2cb	-0.43739924
236	0x3ddd2785	0.107985534
237	0xbe039529	-0.12849869
238	0xbe62bd00	-0.2214241
239	0xbf1b137b	-0.605766
240	0xbe2ada92	-0.1668494
241	0xbe996513	-0.29959926
242	0x3c93134a	0.017953534
243	0xbe05d22d	-0.13068457
244	0xbda1b472	-0.07895745
245	0xbe94f6c9	-0.29094532
246	0xbec02b98	-0.3753326
247	0xbf0dd8b4	-0.5540879
248	0xbe65baf4	-0.22434598
249	0xbf1f9f63	-0.6235258
250	0xbe48b499	-0.19600143
251	0xbe8aa00e	-0.27075237
252	0xbec161ab	-0.37769827
253	0xbea9c2b6	-0.33156365
254	0xbe410935	-0.18851168
255	0xbec27e23	-0.3798686

mlp.2.weight f4 [256, 512]
0	0xbe07a7ce	-0.13247606
1	0xbe2c96ce	-0.16854402
2	0x3d363a73	0.044489335
3	0x3d5c3507	0.05376151
4	0xbe3f5e9e	-0.18688437
5	0xbd5242e8	-0.051333338
6	0x3bf0b79c	0.0073461067
7	0xbc05cc0b	-0.008166323
8	0x3ce3ba1e	0.027798709
9	0x3d90d7d0	0.07072413
10	0xbddca8af	-0.10774361
11	0x3d2d0aea	0.042246737
12	0x3e017178	0.12640941
13	0x3d33a490	0.04385811
14	0xbdba03ac	-0.090827316
15	0x3dbc0fc4	0.091826946
16	0xbe86536b	-0.26235518
17	0xbd9e47e1	-0.077285536
18	0x3d905c46	0.0704885
19	0x3d3635df	0.04448497
20	0x3bab7d0c	0.0052334126
21	0xbd9267b3	-0.07148685
22	0xbc128ab4	-0.008944202
23	0xbe270741	-0.16311361
24	0x3cc4e3ed	0.024034465
25	0x3da72759	0.08161802
26	0xbe251410	-0.16120934
27	0xbdc9f48e	-0.09861098
28	0xbdddac9b	-0.108239375
29	0xbc3b9da9	-0.011451163
30	0xbe206d02	-0.15666583
31	0x3cd1cd70	0.025610656
32	0x3cc6d5bb	0.024271837
33	0x3dae8086	0.08520608
34	0x3d372db9	0.04472134
35	0x3db5f025	0.088836946
36	0xbe43ea01	-0.19132234
37	0x3d2a0406	0.041507743
38	0x3d2f12b4	0.042742446
39	0xbd175017	-0.036941614
40	0x3ccb7b63	0.024839109
41	0x3dd9895f	0.106219046
42	0xbdb876d4	-0.0900704
43	0x3d63eb55	0.055644352
44	0x3d7b8d26	0.061413907
45	0xbcc030d7	-0.023460789
46	0x3ba7b622	0.0051181475
47	0x3d574910	0.052559912
48	0xbea6d69b	-0.32585606
49	0xbc8a40e5	-0.016876647
50	0xbd3e2d36	-0.046429835
51	0xbde936f3	-0.11387434
52	0xbd8cc4db	-0.06873485
53	0xbe5a9d40	-0.21349049
54	0x3d8f6a88	0.07002741
55	0x3dccc4e5	0.09998492
56	0xbdbc8c69	-0.092064686
57	0x3e1f2d8e	0.15544721
58	0x3daa1be0	0.08306098
59	0x3bbf2a32	0.0058338875
60	0x3cdba961	0.026814165
61	0xbde73359	-0.11289091
62	0xbd461e39	-0.048368666
63	0xbdb1cc17	-0.08681505
64	0x3baf3c1a	0.005347741
65	0xbd8f3f73	-0.06994524
66	0xbe1a8623	-0.15090232
67	0x3dc4d4ea	0.09610923
68	0xbd3b6100	-0.045746803
69	0xbe07d07c	-0.13263124
70	0xbdb3ac6f	-0.087731235
71	0x3d9f7737	0.0778641
72	0xbdc34c7a	-0.09536071
73	0xbddc9a34	-0.107715994
74	0xbe686d66	-0.22697982
75	0xbe5d3854	-0.21603519
76	0x3ce8a012	0.02839664
77	0xbd8d67d9	-0.06904573
78	0xbd636aba	-0.055521704
79	0xbd83f51d	-0.06443236
80	0xbda7f32c	-0.08200678
81	0x3d9f2605	0.077709235
82	0xbd0633b7	-0.032764163
83	0xbc858ef1	-0.016303511
84	0xbd50f3c0	-0.051013708
85	0xbe06f87b	-0.13180725
86	0xbddd79a6	-0.10814218
87	0xbc3f4b6d	-0.011675698
88	0xbe2b5ad9	-0.16733874
89	0xbda90055	-0.082520165
90	0x3d803ed5	0.06261984
91	0x3e184a9f	0.14872216
92	0xbd49cf32	-0.049269862
93	0x3e40d408	0.18830884
94	0x3d6b892b	0.05750386
95	0xbe589dac	-0.21153897
96	0x3cd1d547	0.025614394
97	0x3d0f13dd	0.034931052
98	0xbd05c368	-0.032657057
99	0x3d217f1b	0.039427858
100	0xbe3466f2	-0.17617396
101	0xbdabbfd5	-0.083861984
102	0xbe434043	-0.19067483
103	0xbe7e1c0a	-0.24815384
104	0x3cf11d98	0.029433057
105	0xbe78d170	-0.24298644
106	0xbdcd9bb2	-0.10039462
107	0xbd6b7b30	-0.057490528
108	0xbcae55cd	-0.021281147
109	0xbddc5f87	-0.10760408
110	0x3da6c914	0.08143821
111	0x3c7cc863	0.015428635
112	0x3dff2e1c	0.124599665
113	0x3dbf6278	0.09344953
114	0xbe368895	-0.1782554
115	0xbdcd9d52	-0.10039772
116	0x3cb92af6	0.022603493
117	0xbd76d3fd	-0.06026076
118	0x3d7bd946	0.061486505
119	0xbe394ed0	-0.18096471
120	0x3d6aa225	0.05728354
121	0xbdd5e4e1	-0.10444046
122	0x3d877894	0.06614795
123	0x3d89ef4a	0.06735094
124	0x3d368b20	0.044566274
125	0x3c2e3eb9	0.010635071
126	0xbc9739f1	-0.018460246
127	0xbd4d0e7a	-0.050062634
128	0x3cb6b0fc	0.02230119
129	0x3d559f57	0.05215391
130	0xbd943b22	-0.07237841
131	0x3c165c99	0.00917735
132	0x3d22033a	0.03955386
133	0xbd5be0cb	-0.053681176
134	0xbdd1e086	-0.102479026
135	0xbd5c2fc6	-0.053756498
136	0xbce72c3d	-0.028219337
137	0x3d575c69	0.052578364
138	0x3dfa6324	0.12225941
139	0x3d24be01	0.040220264
140	0x3e134beb	0.14384429
141	0x3db17c01	0.0866623
142	0xbda21d9e	-0.07915805
143	0x3d6634b5	0.05620261
144	0xbcf512a5	-0.029916117
145	0xbd413d76	-0.047177754
146	0xbd4a0a05	-0.04932596
147	0x3e0a15ed	0.13484927
148	0x3e2ef8bf	0.17087077
149	0xbe0b4ba1	-0.13603069
150	0xbdb4e2ed	-0.08832345
151	0xbc3ba2ac	-0.011452358
152	0x3d632ed1	0.05546457
153	0x3db3f242	0.087864414
154	0xbe2cd4a0	-0.16877985
155	0x3d175361	0.03694475
156	0x3c085e75	0.008323302
157	0xbe21bb85	-0.1579419
158	0x3c68640b	0.014184008
159	0xbdec8993	-0.11549678
160	0xbde532f9	-0.11191363
161	0xbc6d2f75	-0.014476647
162	0xbd95577c	-0.07292077
163	0xbd35adee	-0.044355325
164	0xbce87294	-0.028374948
165	0xbe39e4c4	-0.18153673
166	0x3ccc3e55	0.024932066
167	0x3d3020d6	0.043000065
168	0xbcc3b5e7	-0.023890449
169	0xbb50efd3	-0.0031881228
170	0xbe4571bd	-0.19281669
171	0x3da4e389	0.080512114
172	0xbd91911e	-0.07107757
173	0xbdad7909	-0.08470351
174	0x3d62ca02	0.05536843
175	0xbd78bc6a	-0.06072656
176	0x3e2e7ab0	0.17038989
177	0xbd94d442	-0.072670475
178	0x3da2ea1e	0.079548106
179	0x3d8024e4	0.06257036
180	0xbeb8686a	-0.36017162
181	0x3d858a64	0.065205365
182	0x3d874617	0.066051655
183	0xbd57e0b3	-0.052704524
184	0xbd9b2d33	-0.075769804
185	0x3e00d4cb	0.12581174
186	0xbc402698	-0.0117279515
187	0xbbea6508	-0.007153157
188	0xbe118559	-0.14211024
189	0xbd72bc0d	-0.05926137
190	0xbd6cc97e	-0.057809345
191	0x3a18b2ea	0.0005825
192	0xbdc233c2	-0.09482528
193	0x3d30733b	0.043078642
194	0xbc85ab01	-0.016316893
195	0x3de6319b	0.1123993
196	0x3c96750b	0.018366357
197	0x3d50a2a0	0.05093634
198	0xbd95f6d6	-0.07322471
199	0x3d23e72d	0.04001539
200	0xbe153378	-0.14570415
201	0x3de02c28	0.10945922
202	0xbcb75c6e	-0.022382941
203	0xbd7541db	-0.059877258
204	0x3d1c4d53	0.03815968
205	0xbe917152	-0.2840677
206	0x3ccf33fe	0.025293346
207	0xbdaaa649	-0.083324976
208	0x3ce50360	0.02795571
209	0x3e2d29c3	0.16910462
210	0xbdc7a8e5	-0.09749011
211	0x3c5319f1	0.012884603
212	0xbdb43881	-0.0879984
213	0x3d1ea8dd	0.03873526
214	0xbb0353cc	-0.002003896
215	0x3dcccde6	0.100002095
216	0x3dde58eb	0.108568035
217	0x3cdaee43	0.02672494
218	0xbe2d6aa7	-0.16935216
219	0xbe117d8f	-0.14208053
220	0xbea4696a	-0.32111675
221	0x3cdcc072	0.026947234
222	0xbdcc8b40	-0.09987497
223	0xbcd0c6c8	-0.025485411
224	0xbd94f4c4	-0.07273248
225	0x3c3e03b6	0.011597564
226	0xbb896bd4	-0.0041937623
227	0xbcab91f3	-0.020943617
228	0xbd5b15de	-0.05348765
229	0xbd81dbed	-0.06340776
230	0xbd94a80d	-0.07258616
231	0xbe568c27	-0.20951901
232	0xbe1aa440	-0.15101719
233	0x3b881ced	0.004153839
234	0xbb76c0e5	-0.0037651595
235	0x3d1cadd2	0.038251705
236	0xbdaff7ae	-0.08592163
237	0xbdb76c45	-0.08956198
238	0xbd7fea42	-0.062479265
239	0x3cb7513e	0.022377606
240	0x3b2a162d	0.002595316
241	0x3d226201	0.039644245
242	0xbdc38ec1	-0.095487125
243	0xbe0e28bb	-0.13882725
244	0xbc456351	-0.012047605
245	0x3df3d57e	0.11905955
246	0xbd9c5f49	-0.07635362
247	0xbd360827	-0.04444137
248	0xbbaf9c17	-0.0053591835
249	0xbd73edcb	-0.05955295
250	0x3ca4de4f	0.020125536
251	0x3e2a7fbf	0.16650294
252	0x3df16782	0.11787321
253	0x3c162f88	0.009166606
254	0xbdb8270c	-0.089918226
255	0xbe175050	-0.1477673

mlp.2.bias f4 [256]
0	0xbe0782ec	-0.13233536
1	0xbe601a7a	-0.218851
2	0xbd5e641a	-0.054294683
3	0xbe1008e4	-0.14065892
4	0xbdbcfc29	-0.09227783
5	0xbe49cd60	-0.1970725
6	0xbd9d07ff	-0.07667541
7	0xbdbd8cb6	-0.09255354
8	0xbe2ddbe6	-0.16978416
9	0xbd449371	-0.047992174
10	0xbdaf55ac	-0.085612625
11	0xbe700104	-0.23437887
12	0xbda29722	-0.079389825
13	0xbe80c631	-0.25151208
14	0x3e16bf6f	0.14721464
15	0xbe086085	-0.1331807
16	0xbdb831a7	-0.089938454
17	0xbdefb39c	-0.1170418
18	0xbdd5f33f	-0.10446786
19	0xbdf02ff1	-0.11727894
20	0xbe1ffc62	-0.1562362
21	0xbe2a239a	-0.16615143
22	0xbe6fec35	-0.2342995
23	0xbcae592c	-0.021282755
24	0xbe596ac4	-0.21232134
25	0xbe4416c9	-0.19149317
26	0xbdcafe77	-0.099118166
27	0xbdebeb3b	-0.11519476
28	0xbe095e28	-0.13414824
29	0xbd4adf5a	-0.04952941
30	0xbe048bae	-0.12943909
31	0xbe3ca8c2	-0.18423751
32	0xbdd5a986	-0.10432725
33	0xbe5a540d	-0.21321125
34	0xbda823f8	-0.082099855
35	0xbe337e02	-0.17528537
36	0xbe2f5c36	-0.1712502
37	0xbead3a43	-0.33833513
38	0xbe1f86b6	-0.15578732
39	0xbe4fbb5f	-0.2028632
40	0xbe0a2604	-0.13491064
41	0xbdf33d8c	-0.118769735
42	0xbe070160	-0.13184118
43	0xbea35325	-0.31899372
44	0xbe6fdd63	-0.23424296
45	0xbde308b0	-0.110856414
46	0xbdf8e008	-0.121521056
47	0xbde988c0	-0.11403036
48	0xbe9d9714	-0.30779326
49	0xbe38ec42	-0.18058875
50	0xbd63ca5a	-0.0556129
51	0xbdbb767b	-0.09153458
52	0xbdf2089c	-0.11818048
53	0xbd8563f3	-0.065132044
54	0xbdebf959	-0.11522169
55	0xbdb0aa7c	-0.08626267
56	0xbea282a6	-0.31740302
57	0x3db8dde0	0.09026694
58	0xbe6881ea	-0.22705808
59	0xbd6e4c7d	-0.058178414
60	0xbe1b45bd	-0.15163322
61	0xbd39a4de	-0.045323245
62	0xbe728c15	-0.2368625
63	0xbe81cae9	-0.2535012
64	0xbdc711b3	-0.09720173
65	0xbe4b3336	-0.19843754
66	0xbe711150	-0.2354176
67	0xbde56564	-0.11200979
68	0xbdd85206	-0.1056252
69	0xbe8d78a1	-0.27631095
70	0xbd8eac29	-0.06966431
71	0xbdf6e6e7	-0.1205576
72	0xbe3e6a20	-0.18595171
73	0xbd84f349	-0.064917155
74	0xbe428b96	-0.1899856
75	0xbd62f581	-0.055409912
76	0xbe85736e	-0.26064628
77	0x3d6b99dd	0.057519782
78	0x3bd2aadb	0.006429059
79	0xbe05ba2f	-0.13059305
80	0xbdfa52a1	-0.122227915
81	0xbe77752c	-0.24165791
82	0xbdf2906a	-0.11843951
83	0xbdcc5ad6	-0.09978263
84	0xbe8d787a	-0.2763098
85	0x3c3e3570	0.01160942
86	0xbd80580f	-0.06266796
87	0xbe11083d	-0.14163299
88	0xbe3f7a31	-0.18698956
89	0xbe12eab3	-0.14347343
90	0xbe2de456	-0.16981634
91	0xbe5ca462	-0.21547082
92	0xbd9dd5a6	-0.07706766
93	0xbc101ce4	-0.008795951
94	0xbe86462e	-0.26225418
95	0xbe309d9d	-0.17247625
96	0xbec087b5	-0.37603536
97	0xbe0c9cf7	-0.13731752
98	0xbea2c754	-0.317927
99	0xbea44867	-0.3208649
100	0xbe0ddeb9	-0.13854493
101	0xbe36aee2	-0.1784015
102	0xbe4c07c9	-0.19924845
103	0xbe1774ac	-0.147906
104	0xbe0a3e12	-0.1350024
105	0xbc8c9e63	-0.017165368
106	0xbde3a21d	-0.11114905
107	0xbe1e5990	-0.15463853
108	0xbe2ffca7	-0.17186223
109	0xbe2cc7ef	-0.16873144
110	0xbdb976c4	-0.09055856
111	0xbd978821	-0.073990114
112	0xbebace9f	-0.36485764
113	0xbe00ca79	-0.12577237
114	0xbdb029d3	-0.08601727
115	0xbddebf82	-0.10876371
116	0xbe8c3751	-0.27385953
117	0xbe314bcd	-0.17314072
118	0xbde9ffa7	-0.11425715
119	0xbe9a30a6	-0.3011524
120	0xbe076b8b	-0.13224618
121	0xbd8758ab	-0.06608709
122	0xbe329815	-0.17440827
123	0xbe971606	-0.2950899
124	0xbdd1c90e	-0.10243426
125	0xbe858415	-0.26077333
126	0xbe6f4abb	-0.23368351
127	0x3d31ff80	0.043456554
128	0xbe207436	-0.15669331
129	0xbdd7892b	-0.105242096
130	0xbe1f937d	-0.15583606
131	0xbe27ba09	-0.1637956
132	0xbe5ba74f	-0.21450542
133	0xbdfeea21	-0.12447
134	0xbe1f2dbf	-0.15544794
135	0xbe9179ae	-0.28413147
136	0xbe14b6ca	-0.14522853
137	0xbe21af0f	-0.15789436
138	0x3e563a0a	0.20920578
139	0xbe62e9c4	-0.22159487
140	0x3df3a19a	0.118960574
141	0xbe867173	-0.2625843
142	0xbd3a05b8	-0.04541561
143	0xbd98d412	-0.07462324
144	0xbeafbdbc	-0.34324443
145	0xbe812c06	-0.252289
146	0xbeafae34	-0.34312594
147	0xbe891c96	-0.26779622
148	0xbd93aa3e	-0.072102055
149	0xbd53f3c4	-0.051746145
150	0xbe2afcdf	-0.16698025
151	0xbefc0f82	-0.49230582
152	0xbe946bf1	-0.28988603
153	0xbd860491	-0.0654384
154	0xbdd5695b	-0.104204856
155	0xbe808503	-0.2510148
156	0xbd63ac7e	-0.055584423
157	0xbd7de35d	-0.06198441
158	0xbdab3f3b	-0.0836167
159	0xbe5b5516	-0.21419176
160	0xbeb8aae7	-0.36067888
161	0xbe702443	-0.23451333
162	0xbc8036cd	-0.015651131
163	0xbe3a5f26	-0.18200359
164	0xbe9ff6f5	-0.312431
165	0xbdc11477	-0.094277315
166	0xbe17d539	-0.14827432
167	0xbe998016	-0.29980534
168	0x3c86169a	0.0163682
169	0xb812bcdc	-3.4985e-05
170	0x3d15772f	0.036490615
171	0x3d9261a4	0.0714753
172	0xbe182396	-0.14857325
173	0xbd89c33e	-0.067266926
174	0xbe0a119b	-0.13483278
175	0x3d3ed0ad	0.046585727
176	0xbe5eda2d	-0.21762915
177	0xbe92132b	-0.2853025
178	0xbdf022ac	-0.11725363
179	0xbea060fb	-0.3132399
180	0xbe662a9b	-0.2247719
181	0x3c0c51ee	0.008564455
182	0xbd9672c7	-0.07346111
183	0xbd9ea11b	-0.07745572
184	0xbea9cc5b	-0.33163723
185	0xbe00d822	-0.12582448
186	0xbd9c4190	-0.076296926
187	0xbe984edd	-0.29747668
188	0xbdf01c8c	-0.11724195
189	0xbdde4638	-0.10853237
190	0x3da9214f	0.08258306
191	0xbe5fe860	-0.21865988
192	0xbe7a5657	-0.24446999
193	0xbe227d89	-0.158682
194	0xbdb3f9cd	-0.0878788
195	0xbe11cfcd	-0.14239426
196	0xbe56328c	-0.2091772
197	0xbe650fc6	-0.22369298
198	0xbe01bf71	-0.12670685
199	0xbd3be4dd	-0.045872558
200	0xbe8db28a	-0.27675277
201	0xbce291a1	-0.027657332
202	0xbe10f40b	-0.14155595
203	0xbe58e3a7	-0.21180592
204	0x3d81fa92	0.063466206
205	0xbca81771	-0.02051899
206	0xbe6bc2aa	-0.23023477
207	0xbeb8b261	-0.36073592
208	0xbe116b1e	-0.14201018
209	0xbdc56652	-0.09638657
210	0xbe1317a2	-0.14364484
211	0xbedc8d48	-0.4307654
212	0xbdd9a0de	-0.10626386
213	0x3d826b3b	0.06368109
214	0xbde4a0ff	-0.1116352
215	0xbe0e187a	-0.13876525
216	0xbd883731	-0.06651152
217	0xbd908cd2	-0.07058109
218	0x3cd7c655	0.02633969
219	0xbe3c6052	-0.18396118
220	0xbe067bcb	-0.13133161
221	0xbe8d311b	-0.27576527
222	0xbdea1d44	-0.11431363
223	0xbe1e70b5	-0.15472682
224	0xbdd22eab	-0.102628075
225	0xbead44b9	-0.33841494
226	0x3c028e44	0.007968489
227	0xbdd1ab45	-0.10237745
228	0xbdc30dc6	-0.095241114
229	0xbe1ca106	-0.152958
230	0xbed3b064	-0.41345513
231	0xbe5127e3	-0.20425372
232	0x3c88b451	0.016687544
233	0xbeca8836	-0.39557046
234	0xbe8fecfd	-0.28110495
235	0xbdc32de5	-0.09530238
236	0xbdbb7c4d	-0.09154568
237	0xbe8b484e	-0.27203602
238	0xbe72110c	-0.23639315
239	0xbd907c83	-0.07054999
240	0xbe770032	-0.24121168
241	0xbeb50c12	-0.3536077
242	0xbe50668f	-0.20351623
243	0x3d827a2b	0.06370958
244	0x3c1bd236	0.009510567
245	0xbe8dda2d	-0.27705517
246	0xbc2ec22f	-0.010666414
247	0xbd80075e	-0.06251405
248	0xbe3eb905	-0.18625267
249	0xbe5b2b92	-0.2140334
250	0xbe3618de	-0.17782924
251	0xbe61ca14	-0.22049743
252	0xbe63e842	-0.22256568
253	0xbdb535a6	-0.08848123
254	0xbe669a23	-0.22519736
255	0xbd49831f	-0.049197312

mlp.4.weight f4 [128, 256]
0	0x3d3d761b	0.046255212
1	0x3d45ce59	0.04829249
2	0x3d43108e	0.04762321
3	0xbdebd1da	-0.115146354
4	0x3d7c1628	0.061544567
5	0x3d41b03f	0.047287222
6	0x3bb436cf	0.0054996978
7	0xbc752ad1	-0.0149638215
8	0x3d4c2a87	0.049845245
9	0xbd36748d	-0.044544745
10	0x3dd0fbef	0.102043025
11	0xbd8bfc05	-0.06835178
12	0x3d5a3b0b	0.053278964
13	0xbcd34a3e	-0.025792237
14	0xbc5f6263	-0.013634297
15	0xbdff100b	-0.12454232
16	0xbe501573	-0.20320682
17	0x3cb2ba2b	0.021817287
18	0x3e2453ca	0.16047588
19	0xbdc4eb9c	-0.096152514
20	0x3e0ca0f7	0.13733278
21	0xbe0bc275	-0.13648398
22	0x3cd4cb25	0.025975773
23	0xbd1e4b99	-0.038646314
24	0x3e103b19	0.14085044
25	0xbdeff5b7	-0.11716788
26	0xbd134e26	-0.0359632
27	0x3d45419b	0.04815827
28	0xbdea143e	-0.11429642
29	0xbda0957a	-0.078410104
30	0x3cd2c4fa	0.025728691
31	0xbddde046	-0.108337924
32	0xbca18380	-0.019716024
33	0x3d67f708	0.05663207
34	0x3d291d7c	0.041287884
35	0xbd62e4cf	-0.05539399
36	0x3d683852	0.056694336
37	0xbcb5a024	-0.022171088
38	0x3cdcb50c	0.026941799
39	0xbce2d095	-0.02768735
40	0x3d3fb102	0.046799667
41	0xbd8e75b1	-0.069560416
42	0xbd5ad195	-0.05342253
43	0xbd8abd25	-0.06774358
44	0xbda53ef5	-0.08068649
45	0xbcde2a7d	-0.02711987
46	0xbb999bf2	-0.0046877796
47	0xbd5c299e	-0.053750627
48	0x3e37e53d	0.17958541
49	0x3c81457a	0.0157802
50	0xbdc384e8	-0.09546834
51	0x3de5016d	0.111819126
52	0x3e32b805	0.1745301
53	0x3b75365a	0.003741643
54	0x3ce4dab9	0.027936326
55	0x3d7d893a	0.061898448
56	0xbcfc2d8e	-0.03078344
57	0x3da1eb33	0.07906189
58	0x3d92188c	0.07133588
59	0x3c14d85e	0.009084789
60	0x3cb52249	0.022111075
61	0xbe251901	-0.1612282
62	0x3c3d6e1f	0.011561899
63	0xbd17c38b	-0.03705172
64	0x3d5033ef	0.050830778
65	0xbc323668	-0.010877229
66	0x3cde25b0	0.02711758
67	0x3d6d0703	0.057868015
68	0x3d6ffeb4	0.058592513
69	0x3d8ab85f	0.06773447
70	0xbe00e63e	-0.1258783
71	0x3d35787d	0.04430436
72	0xbabf3043	-0.0014586527
73	0xbe4104c4	-0.18849474
74	0x3d8b6e68	0.06808168
75	0x3b5f37a3	0.0034060262
76	0xbd45aa63	-0.048258197
77	0x3dca1691	0.098675855
78	0x3be4c4ff	0.0069814916
79	0x3b5d200b	0.0033741023
80	0x3d818509	0.063242026
81	0xbe02d990	-0.12778306
82	0x3ddc03b0	0.10742891
83	0x3cebb396	0.028772157
84	0x3e1b54df	0.15169095
85	0x3b6c5c55	0.0036065776
86	0x3e3a92bd	0.18220039
87	0x3d254035	0.040344436
88	0xbca7baf6	-0.020474892
89	0xbdfd6700	-0.12373161
90	0x3cb2d6ae	0.021830883
91	0x3d9e7513	0.07737174
92	0x3c5c2c2c	0.013438266
93	0xbd3f698a	-0.04673151
94	0x3cdc2640	0.026873708
95	0x3d2c8d7f	0.04212713
96	0xbd113fe4	-0.03546132
97	0x3db0168d	0.08598051
98	0x3e02440c	0.1272127
99	0xbd97ca95	-0.07411686
100	0x3c8da1c9	0.01728906
101	0x3c93022c	0.017945372
102	0x3e040101	0.12891008
103	0x3c341cd6	0.010993203
104	0x3e594788	0.21218693
105	0xbd995cea	-0.07488425
106	0x3c177324	0.00924376
107	0x3d35c944	0.044381395
108	0x3d110491	0.035404745
109	0xbda85231	-0.08218802
110	0xbb932757	-0.0044907737
111	0xbd2bd272	-0.041948743
112	0x3dece904	0.11567882
113	0x3d44cb0b	0.0480452
114	0x3d666716	0.056250654
115	0xbce9be83	-0.028533226
116	0x3e558b01	0.20853807
117	0x3c7f19b8	0.015570097
118	0x3df77080	0.120820045
119	0x3d7d7fbc	0.061889395
120	0xbde91bea	-0.11382277
121	0x3d75f6a2	0.06004966
122	0xbdd123e2	-0.10211922
123	0x3d8be923	0.06831577
124	0xbdb6b27b	-0.08920761
125	0x3cd7f5b9	0.026362287
126	0x3d3d7c16	0.046260916
127	0xbd3f2fdf	-0.046676513
128	0x3dcb6c4a	0.09932764
129	0x3e1f07f0	0.15530372
130	0x3da8c3d9	0.0824048
131	0xbdad9b71	-0.08476914
132	0xbd08d57a	-0.033406712
133	0x3dd646ea	0.104627445
134	0x3bb74021	0.0055923616
135	0xbd4285a1	-0.04749072
136	0xbd90a8fe	-0.07063483
137	0x3db418ab	0.087937675
138	0xbd8be46f	-0.068306796
139	0x3cd8b940	0.026455522
140	0xbda11628	-0.07865554
141	0xbe1a3fe0	-0.15063429
142	0xbe1ac7fe	-0.15115353
143	0x3cab58a6	0.020916294
144	0x3ea3b8c0	0.3197689
145	0x3e1061f7	0.1409987
146	0xbb890fe0	-0.0041828007
147	0x3dae5669	0.08512575
148	0xbe3dd414	-0.18537933
149	0x3c520e99	0.012820863
150	0x3d6f0d76	0.058362447
151	0xbd11fe51	-0.035642926
152	0x3e2338d5	0.15939648
153	0xbc2ef559	-0.010678613
154	0xbe2b5435	-0.16731341
155	0x3d99dd6a	0.075129345
156	0xbe110195	-0.1416076
157	0xbde425c0	-0.11140013
158	0xbe6336d5	-0.22188886
159	0x3e06e335	0.1317261
160	0xbd08b6de	-0.03337752
161	0xbca6ca6c	-0.020360194
162	0xbd735c12	-0.059413977
163	0x3d790960	0.060799956
164	0xbb9bb2d5	-0.004751543
165	0xbd93af80	-0.07211208
166	0xbe21534d	-0.15754433
167	0xbdf4e1ef	-0.11957156
168	0xbcd17ba5	-0.025571654
169	0xbcfb5e67	-0.030684663
170	0xbe2af292	-0.16694096
171	0x3dd50b12	0.10402502
172	0x3dc65eb5	0.09686033
173	0xbdbcc3bb	-0.0921702
174	0x3e2c0eb9	0.16802491
175	0xbe0e652b	-0.1390578
176	0xbbb91b03	-0.005648972
177	0x3dce5db0	0.10076463
178	0x3c3aa719	0.011392378
179	0xbe2cff32	-0.16894224
180	0x3dfa6e47	0.12228065
181	0xbdfda4ed	-0.12384973
182	0xbe0587b5	-0.1304005
183	0xbd605514	-0.054768637
184	0xbc8183f3	-0.015809989
185	0x3d854196	0.0650665
186	0xbc99de67	-0.018782808
187	0x3e076b13	0.1322444
188	0xbc38de06	-0.011283403
189	0x3dc47cb9	0.095941015
190	0xbb67956f	-0.0035336872
191	0x3e209edc	0.156856
192	0x3e269434	0.16267473
193	0x3dd73acd	0.10509262
194	0x3db87664	0.09006956
195	0xbd700ca5	-0.05860581
196	0x3ce6706d	0.02812978
197	0xbd9e8935	-0.07741014
198	0xbe095d79	-0.13414563
199	0x3dbe8295	0.0930225
200	0xbc05397f	-0.008131384
201	0xbdb5df7b	-0.08880516
202	0xbc3a7105	-0.011379485
203	0x3e5f88d7	0.21829544
204	0xbc8300f5	-0.015991667
205	0xbd30d140	-0.043168306
206	0xbc816026	-0.015792917
207	0x3d86fd26	0.06591253
208	0x3cd63d5e	0.026152309
209	0x3d0a45f8	0.033758134
210	0x3e09a3ee	0.1344144
211	0xbe088a9d	-0.13334127
212	0xbd67df0d	-0.056609202
213	0x3d8430a8	0.06454593
214	0xbe300fb6	-0.17193493
215	0x3db955f9	0.09049601
216	0x3d8b104d	0.067902185
217	0xbd95ce5d	-0.07314751
218	0x3dee78d2	0.116441384
219	0xbd86dd1b	-0.06585141
220	0x3ceaca4e	0.02866092
221	0xbbfc4f13	-0.007699856
222	0xbcb35765	-0.021892259
223	0x3d10e248	0.03537205
224	0x3e318d44	0.17339045
225	0xbcbe6e71	-0.023246022
226	0x3d465cd2	0.048428364
227	0xbcb12aa3	-0.021626776
228	0xbda12f42	-0.07870342
229	0xbe0545dd	-0.13014932
230	0x3d09e0c8	0.033661634
231	0x3e10ffa1	0.14160015
232	0xbc06f297	-0.008236549
233	0x3e12fadb	0.14353506
234	0x3ddcbd46	0.107782885
235	0x3df0d946	0.117601916
236	0xbe077863	-0.13229518
237	0x3d5a264e	0.053259186
238	0xbd109574	-0.03529878
239	0xbda490f6	-0.080354616
240	0xbe46c083	-0.19409375
241	0x3d379abc	0.0448253
242	0xbd98d054	-0.074616104
243	0x3d5ffd0f	0.054684695
244	0xbcb92660	-0.022601306
245	0xbdccccd0	-0.100000024
246	0xbdb94651	-0.09046615
247	0x3de140dd	0.109987
248	0xbdddaee9	-0.10824377
249	0x3ae2dc17	0.0017308024
250	0xbe9b86e4	-0.3037635
251	0xbb2ce3cc	-0.0026380895
252	0xbd8ddc30	-0.06926763
253	0xbbfd548d	-0.0077310265
254	0xbaeab73d	-0.0017907392
255	0x3d6ef0d8	0.058335155

mlp.4.bias f4 [128]
0	0xbdfaa6ca	-0.12238844
1	0xbded6a43	-0.115925334
2	0xbdd37995	-0.10325924
3	0xbcd9029c	-0.026490502
4	0xbe5bb4a4	-0.21455628
5	0xbe0c2363	-0.13685374
6	0xbe2fc377	-0.17164408
7	0xbd46194f	-0.04836398
8	0x3d7d923f	0.06190705
9	0xbd9426fe	-0.07234
10	0xbde2ba07	-0.11070638
11	0xbd8c6e44	-0.06856969
12	0x3d0d9d89	0.034574065
13	0xbd54de13	-0.0519696
14	0xbdc3ff43	-0.09570172
15	0xbd5b3588	-0.05351785
16	0xbe67b491	-0.22627474
17	0xbde4afcc	-0.11166343
18	0xbd5c340e	-0.05376058
19	0xbdaa0337	-0.083013944
20	0xbe4aab1a	-0.19791833
21	0xbe9c5dc3	-0.30540285
22	0xbe8356c1	-0.25652125
23	0xbc7656c8	-0.015035339
24	0xbe28bd3d	-0.16478439
25	0xbda74872	-0.08168115
26	0x3d9fccdd	0.078027464
27	0xbe16ff18	-0.14745748
28	0x3dc534bd	0.096292
29	0xbd9db80e	-0.07701121
30	0xbdbc2d08	-0.091882765
31	0xbe79ccce	-0.24394533
32	0xbe2d743a	-0.16938868
33	0xbe624040	-0.22094822
34	0xbed5ed2b	-0.41782507
35	0xbe2738cc	-0.1633026
36	0xbc8bffe8	-0.017089799
37	0xbc3ee8cd	-0.011652184
38	0xbd4b956b	-0.049703043
39	0xbe1d0212	-0.15332821
40	0xbd6f1d6c	-0.05837767
41	0xbdec28ef	-0.11531245
42	0xbee3b429	-0.4447339
43	0xbd333cb5	-0.043759067
44	0xbdd24e78	-0.10268873
45	0xbcef8bb9	-0.02924143
46	0xbe946609	-0.28984097
47	0xbdde0bd8	-0.10842103
48	0xbe23a9b1	-0.15982701
49	0xbdbd364b	-0.09238871
50	0xbdc06762	-0.09394719
51	0xbe311c8b	-0.17296045
52	0xbd931c6f	-0.07183158
53	0xbd5c1c11	-0.053737704
54	0xbdc288c8	-0.09498745
55	0xbdf52ca4	-0.11971405
56	0xbe3419d2	-0.17587975
57	0xbd53c0e2	-0.05169762
58	0xbd746b1f	-0.05967247
59	0xbd09b5a4	-0.03362049
60	0x3c80db79	0.015729653
61	0xbd934f46	-0.071928546
62	0xbe771493	-0.24128942
63	0x3c1050f8	0.008808367
64	0xbdc997bc	-0.09843394
65	0xbd37ba2e	-0.04485529
66	0xbbb94453	-0.005653897
67	0xbe411b89	-0.1885816
68	0xbeaa5de4	-0.33274758
69	0xbecc0832	-0.39850003
70	0xbd63e48a	-0.055637874
71	0xbdf4ea0b	-0.11958703
72	0xbd5d66c9	-0.0540531
73	0xbda7897c	-0.0818052
74	0xbe61d034	-0.2205208
75	0x3c77220b	0.0150838
76	0xbd552ca6	-0.052044533
77	0xbdfa89e3	-0.12233331
78	0xbde39bd8	-0.11113709
79	0xbcc5f970	-0.024166793
80	0xbe7a2ef8	-0.2443198
81	0xbdbde407	-0.092720084
82	0xbe3f0edc	-0.18658012
83	0xbd22eba8	-0.03977552
84	0xbeb9c864	-0.36285698
85	0x3d1f2d7d	0.03886174
86	0xbe040fc7	-0.12896644
87	0xbd4ff95b	-0.050774913
88	0x3c8d5ef8	0.017257199
89	0xbdd5a7e1	-0.10432411
90	0x3d7ae438	0.061252803
91	0xbe3c85fa	-0.18410483
92	0xbbbeda32	-0.0058243508
93	0xbe5857ae	-0.21127197
94	0x3c82cca8	0.015966728
95	0xbe9d25ab	-0.306928
96	0xbb88737f	-0.004164159
97	0xbe404ffa	-0.18780509
98	0xbd9e7625	-0.07737378
99	0xbe0f33c8	-0.13984597
100	0x3cf28b37	0.029607398
101	0xbdd86ee1	-0.105680235
102	0xbe6b9f18	-0.23009908
103	0xbe488f6e	-0.19585964
104	0xbe1a3ed1	-0.15063025
105	0xbe18a3af	-0.1490619
106	0x3da4cd4b	0.08046969
107	0x3d0ba597	0.034093466
108	0xbe3701a6	-0.17871723
109	0xbcc3593e	-0.023846265
110	0x3caddb74	0.021222807
111	0xbe38ecab	-0.18059032
112	0xbe6c6e2f	-0.23088907
113	0xbe3b0f07	-0.18267451
114	0xbd80390a	-0.06260879
115	0xbd27bd1d	-0.040951837
116	0xbddb37bc	-0.1070399
117	0xbd573c50	-0.052547753
118	0xbde0541b	-0.10953542
119	0xbe20f730	-0.15719295
120	0xbe389ee0	-0.18029356
121	0xbeaff620	-0.34367466
122	0xbe791e7c	-0.24328035
123	0x3d584670	0.05280155
124	0xbd4da1ab	-0.050203007
125	0xbd5dd365	-0.05415668
126	0xbec4b6ef	-0.38420817
127	0xbd413bb0	-0.047176063

mlp.6.weight f4 [58, 128]
0	0x3d335cc2	0.043789633
1	0x3d2b3848	0.04180172
2	0x3c594f5f	0.013263552
3	0xbd6f5dfc	-0.05843924
4	0xbc9ae685	-0.018908748
5	0xbc380741	-0.011232198
6	0xbd3ab57e	-0.04558324
7	0x3dbedcb7	0.09319442
8	0x3d84ac2b	0.06478151
9	0xbdae5835	-0.08512918
10	0xbda75f7f	-0.08172511
11	0x3df7d367	0.12100869
12	0xbd3f3241	-0.046678785
13	0xbcc1b8bb	-0.023647657
14	0xbd4b74b3	-0.04967184
15	0x3d0809d4	0.033212498
16	0xbd7a6295	-0.06112917
17	0xb858b1d4	-5.166403e-05
18	0x3ccfb90b	0.02535679
19	0xbc03d1bd	-0.008045611
20	0x3caa78db	0.020809582
21	0x3b15a527	0.0022834034
22	0xbdda6863	-0.106644414
23	0xbcce7e7a	-0.025206793
24	0xbd4f37ff	-0.05059051
25	0x3d2b2049	0.041778836
26	0x3dd08bcb	0.101829134
27	0x3c72ab1e	0.014811305
28	0xbd651f65	-0.055938143
29	0xbe0f5c0f	-0.13999961
30	0xbd02abed	-0.031902242
31	0x3e14c17a	0.1452693
32	0xbdf14974	-0.11781588
33	0x3d3e1008	0.046402007
34	0x3da54112	0.08069052
35	0xbcacbd2c	-0.021086298
36	0x3de68652	0.11256088
37	0xbda39ae5	-0.07988528
38	0x3e8ba1b7	0.27271816
39	0x3e15f546	0.14644346
40	0x3d8a4961	0.06752277
41	0x3e3a4d84	0.18193632
42	0x3c017dbf	0.007903515
43	0x3d95f27a	0.07321639
44	0xbda5e3e5	-0.08100108
45	0xbd39e916	-0.045388304
46	0x3aa10b3f	0.0012286677
47	0xbbc70355	-0.0060733953
48	0xbd863c87	-0.065545134
49	0xbd26a0ec	-0.04068081
50	0xbe206f57	-0.15667473
51	0x3b7f726c	0.0038978113
52	0xbc87eb28	-0.016591623
53	0xbc529e4d	-0.012855125
54	0xbd38c990	-0.0451141
55	0x3dacf80d	0.084457494
56	0xbd54e0bc	-0.051972136
57	0x3d3c27b0	0.045936286
58	0xbd04263d	-0.03226303
59	0x3d0c870f	0.03430849
60	0x3d222cd8	0.039593548
61	0x3e552f19	0.20818748
62	0x3c54b69e	0.012982992
63	0x3d7d08d4	0.061775997
64	0x3cc7db86	0.02439667
65	0x3b94b3bd	0.004538028
66	0xbdfb307d	-0.12265108
67	0xbcca8ca2	-0.024725262
68	0x3d831fce	0.06402551
69	0xbdd64bea	-0.10463698
70	0xbd9df531	-0.07712782
71	0xbe20000d	-0.1562502
72	0x3cffc37a	0.03122114
73	0xbd20b114	-0.039231375
74	0x3dc91c34	0.098198324
75	0x3dd6610c	0.10467729
76	0x3cea3a8e	0.028592374
77	0xbd39f6b8	-0.045401305
78	0x3c0dbad4	0.0086505
79	0x3da162fd	0.07880209
80	0x3bba5cc6	0.005687329
81	0xbd459de3	-0.048246276
82	0x3e159673	0.14608173
83	0xbe239360	-0.15974188
84	0xbc8e67c2	-0.01738346
85	0x3dbc4514	0.09192863
86	0xbde96e8d	-0.11398039
87	0x3d82dbdf	0.06389593
88	0xbda721a8	-0.08160716
89	0xbdc6a459	-0.096993156
90	0x3c8b5097	0.017006202
91	0xbcde565b	-0.027140787
92	0xbd84fb83	-0.064932846
93	0xbdca6f46	-0.09884505
94	0xbd002611	-0.031286303
95	0x3da1df5e	0.07903932
96	0x3cf165dc	0.029467516
97	0xbd0a5759	-0.033774707
98	0xbcfd5390	-0.030923635
99	0xbd9a1160	-0.07522845
100	0x3befc4ac	0.0073171463
101	0x3da907f1	0.08253468
102	0xbd67bbe7	-0.056575682
103	0xbd3c7734	-0.04601212
104	0x3c9d4d51	0.019201906
105	0x3e6d5e70	0.23180556
106	0x3d5e4bf6	0.05427166
107	0x3d7c626f	0.06161731
108	0xbd866912	-0.06563009
109	0xbcbc2922	-0.022968832
110	0x3d63d521	0.055623177
111	0xbe6c2cf9	-0.2306403
112	0x3d6da774	0.058021024
113	0x3dba3dd7	0.09093826
114	0xbdb68d9f	-0.08913731
115	0xbbd63691	-0.0065372665
116	0x3d1cdb0a	0.03829483
117	0xbd7fa7e6	-0.06241598
118	0x3d435ece	0.047697835
119	0xbd3d736c	-0.046252653
120	0x3dd22962	0.102617994
121	0x3b29b3fe	0.0025894637
122	0xbdc3fdc1	-0.09569884
123	0x3d81a936	0.063311026
124	0x3c4129ff	0.011789798
125	0xbd9786f8	-0.0739879
126	0x3e0cd186	0.13751802
127	0x3cd6d15d	0.026222879
128	0xbd1a9bc5	-0.03774621
129	0xbdda1aa0	-0.106496096
130	0xbd7b1dd2	-0.061307736
131	0x3d5c9262	0.05385054
132	0xbdf6830e	-0.120367154
133	0xbd83c1c3	-0.064334415
134	0xbce3589b	-0.027752211
135	0x3ddc62b6	0.10761015
136	0x3d9819fa	0.0742683
137	0x3dad09cb	0.084491335
138	0x3d72a51a	0.059239484
139	0x3e269274	0.16266805
140	0xbd6fc8b5	-0.05854102
141	0x3d9d364d	0.07676373
142	0xbd286431	-0.041111175
143	0xbb9b3911	-0.0047370275
144	0x3dff0731	0.124525435
145	0xbdbb99ee	-0.09160219
146	0xbe0a57b7	-0.13510023
147	0x3e12c5ff	0.14333342
148	0xbe287090	-0.16449189
149	0x3d51b816	0.05120095
150	0xbde4a44b	-0.11164149
151	0x3aa5a0a1	0.0012636372
152	0x3de38dd9	0.1111104
153	0x3cd15b16	0.025556128
154	0x3d3df4ab	0.04637591
155	0x3e4dc56b	0.2009484
156	0xbd4da9a7	-0.05021062
157	0x3d87788e	0.06614791
158	0xbcf30b03	-0.029668337
159	0xbd942844	-0.072342426
160	0x3d9cad9c	0.07650301
161	0x3cc7ffcd	0.024413968
162	0xbd980913	-0.07423606
163	0xbda7d205	-0.08194355
164	0x3e1bd9de	0.15219828
165	0x3c9bf761	0.019038858
166	0x3cc68e23	0.024237698
167	0xbe05c870	-0.13064742
168	0x3c526909	0.012842425
169	0xbdb5a8ff	-0.08870124
170	0xbd824a26	-0.06361799
171	0x3d970432	0.07373847
172	0xbd7239df	-0.05913722
173	0xbd1b7e50	-0.037962258
174	0x3e01022e	0.12598488
175	0xbd95afb5	-0.07308904
176	0xbe2a8e67	-0.16655885
177	0x3e0d5bfb	0.13804619
178	0xbd73fc0e	-0.05956655
179	0x3c11838d	0.008881462
180	0xbda65ba7	-0.0812295
181	0x3d734743	0.059394132
182	0x3ad94314	0.0016575777
183	0xbd3f0574	-0.04663606
184	0x3e578b6d	0.2104928
185	0x3de157d2	0.110030785
186	0xbd69c2cd	-0.057070542
187	0xbd747282	-0.059679516
188	0x3dacdc39	0.08440442
189	0xbd51b02e	-0.05119341
190	0x3d238b55	0.0399278
191	0x3dd8a24b	0.1057783
192	0x3da07a33	0.07835808
193	0x3c56ba6a	0.013105968
194	0xbc9642d1	-0.018342407
195	0xbdb67b0c	-0.08910188
196	0xbe2abcb7	-0.16673551
197	0xbdf61830	-0.12016332
198	0x3b91e043	0.004451783
199	0xbafba426	-0.00191987
200	0xbde3e1db	-0.11127063
201	0xbcf4c2a7	-0.029877974
202	0xbb8877d2	-0.0041646743
203	0x3e6ca569	0.23109974
204	0x3d42f495	0.047596533
205	0x3dab2614	0.08356872
206	0xbb451767	-0.0030073763
207	0x3da55508	0.08072859
208	0xbe22f66a	-0.15914312
209	0x3df08ccf	0.11745607
210	0xbdc448c0	-0.095841885
211	0xbd8a7077	-0.06759732
212	0xbdb3c997	-0.087786846
213	0xbd2e1712	-0.04250247
214	0xbccab002	-0.02474213
215	0x3d369fb0	0.044585884
216	0xbc70fc53	-0.014708596
217	0xbc87b32b	-0.016564926
218	0xbca20aef	-0.019780604
219	0xbd2ca5f8	-0.042150468
220	0xbd84ef6e	-0.0649098
221	0xbccb4640	-0.024813771
222	0xbccddc11	-0.02512935
223	0xbe36f2f7	-0.17866121
224	0x3c0193e6	0.007908797
225	0xbe01eb22	-0.12687352
226	0x3da3352c	0.07969126
227	0xbdd44d69	-0.10366327
228	0x3d4089ae	0.0470063
229	0x3d474448	0.048649102
230	0xbded3392	-0.11582102
231	0xbd9f1e3e	-0.0776944
232	0xbd4c0de1	-0.049817923
233	0x3d8b6337	0.06806033
234	0xbc8c3f14	-0.017119922
235	0xbd816da8	-0.063197434
236	0xbd992e66	-0.07479553
237	0x3d82e938	0.06392139
238	0xbdc010ed	-0.09378228
239	0x3c8868a5	0.01665146
240	0xbe022f73	-0.12713413
241	0xbdd21310	-0.10257542
242	0xbb9594d7	-0.004564862
243	0x3d4fd194	0.05073698
244	0x3cd44609	0.025912302
245	0x3d009bca	0.031398572
246	0x3d9ae013	0.0756227
247	0x3d326572	0.043553777
248	0x3dbc667d	0.091992356
249	0xbe0ffffc	-0.14062494
250	0x3d17e530	0.037083805
251	0xbd458d3d	-0.0482304
252	0xbd926e7a	-0.07149978
253	0xbc82204a	-0.015884537
254	0x3d24bd29	0.04021946
255	0xbcd3b52f	-0.025843231
