navigation/MuJoCo-LiDAR/examples/onnx/go2_policy.onnx (onnx, 772647 bytes, 10 tensors)

obs_mean f4 [48]
0	0xbd906cf1	-0.07052029
1	0x3bd18286	0.0063937334
2	0x3c56b3be	0.013104377
3	0xbad112de	-0.0015951057
4	0xbb6ae576	-0.0035842336
5	0xbc305059	-0.010761344
6	0xbaf13670	-0.0018403064
7	0xb8bd1302	-9.015763e-05
8	0xbf7e9f04	-0.9946139
9	0x3cd1b0e0	0.025597036
10	0x3cc9a117	0.024612946
11	0xbdecebd5	-0.11568419
12	0x3bc83dc3	0.006110878
13	0x3d34cc63	0.04414023
14	0xbdfa5318	-0.1222288
15	0xbce4362e	-0.027857866
16	0x3ce3062f	0.02771291
17	0xbe0f0ef8	-0.13970554
18	0xbca968f8	-0.020679936
19	0x3ac491db	0.0014997082
20	0xbe024584	-0.1272183
21	0x3bd18fb3	0.006395304
22	0x3cc2434c	0.02371373
23	0xbde96c6f	-0.11397635
24	0x3b76fd10	0.0037687458
25	0x3c0b2a8e	0.008494033
26	0xbd51a6c1	-0.05118442
27	0x3a15836e	0.00057034835
28	0xbbba580e	-0.0056867665
29	0xbd7ac7bc	-0.061225638
30	0xbbf5c0c1	-0.0074997847
31	0x3b8c480f	0.004281051
32	0xbdfe66b0	-0.1242193
33	0xbd5c2669	-0.05374757
34	0xbbf82962	-0.0075732926
35	0x3d86b450	0.06577361
36	0x3e166d1e	0.14690062
37	0x3cdab84f	0.026699213
38	0x3de02f6b	0.10946544
39	0xbe4acb39	-0.19804086
40	0x3dcc989c	0.099900454
41	0x3dbbddbc	0.09173152
42	0x3d94729a	0.07248421
43	0x3d545763	0.05184115
44	0x3d5b4bd7	0.053539123
45	0x3aef21a7	0.0018244282
46	0x398e50c1	0.00027144517
47	0x3a570822	0.0008202811

obs_std f4 [48]
0	0x3f5fb44e	0.873845
1	0x3ee2d073	0.4429966
2	0x3e411400	0.18855286
3	0x3faee938	1.3664923
4	0x3f336b90	0.70086
5	0x3fd29d9e	1.6454351
6	0x3da74c54	0.08168855
7	0x3d8c489b	0.06849786
8	0x3d316afc	0.04331492
9	0x3e16c14b	0.14722173
10	0x3e34ae3a	0.17644587
11	0x3e3a82e5	0.18213995
12	0x3e16a160	0.14709997
13	0x3e35dfca	0.1776115
14	0x3e3c6e18	0.18401372
15	0x3e1bcad3	0.1521409
16	0x3e340263	0.17579035
17	0x3e406d46	0.18791685
18	0x3e15cd00	0.14628983
19	0x3e3b0d67	0.18266831
20	0x3e427f2f	0.18993829
21	0x406e26eb	3.7211254
22	0x40853197	4.1623034
23	0x40a2e513	5.090463
24	0x4071c192	3.7774396
25	0x40897fd2	4.296853
26	0x40a709b3	5.219934
27	0x405e7fe6	3.4765563
28	0x4087f2b3	4.2483764
29	0x40a28279	5.078427
30	0x405b96a9	3.4310706
31	0x4082fbbb	4.093229
32	0x409ae26e	4.8401403
33	0x3eda72ae	0.4266562
34	0x3ede1bed	0.4338068
35	0x3f203b74	0.6259072
36	0x3ed91d01	0.4240494
37	0x3ee6b129	0.45057037
38	0x3f291586	0.6604847
39	0x3ed47423	0.41494855
40	0x3ed19da1	0.40940574
41	0x3f2ab273	0.6667854
42	0x3ed5cf65	0.41759792
43	0x3ed05316	0.4068839
44	0x3f22f737	0.6365847
45	0x3fad5adf	1.3543357
46	0x3f216428	0.6304345
47	0x401d0bef	2.4538534

mlp.0.weight f4 [512, 48]
0	0xbe26746d	-0.1625535
1	0x3df1358e	0.11777793
2	0x3de2ca85	0.11073784
3	0x3e2835c4	0.1642676
4	0x3c4c4ed6	0.012469968
5	0x3ea7497b	0.3267325
6	0xbd22a3f0	-0.039707124
7	0xbccb1191	-0.02478865
8	0xbd22c8cb	-0.039742272
9	0x3e92a45b	0.28641018
10	0x3e4e7cfc	0.20164865
11	0xbd57c423	-0.052677285
12	0x3d2c7e42	0.042112596
13	0xbdcbce61	-0.09951473
14	0xbda7f9fe	-0.08201979
15	0x3eaad011	0.33361867
16	0xbe72d729	-0.2371489
17	0x3cc69d6e	0.02424499
18	0x3db0cc78	0.08632749
19	0xbe12daff	-0.14341353
20	0xbd2cbab2	-0.042170234
21	0x3e934d2a	0.2876981
22	0xbdbfadbb	-0.09359308
23	0xbe9c0782	-0.30474478
24	0x3d8d765d	0.06907342
25	0xbdf0b90c	-0.11754045
26	0x3b5d5a34	0.003377569
27	0x3dfa115a	0.12210341
28	0x3e319d31	0.1734512
29	0x3d637c95	0.055538733
30	0x3cc66696	0.024218839
31	0xbc2f7506	-0.010709053
32	0xbdb8db31	-0.090261824
33	0x3dc36950	0.09541571
34	0x3da3bdeb	0.07995208
35	0xbd516851	-0.051124875
36	0x3de09f46	0.10967879
37	0x3c42582b	0.011861841
38	0xbe7a55a7	-0.24446736
39	0xbcd0717d	-0.02544474
40	0xbd48a799	-0.04898796
41	0xbdd9608e	-0.106141195
42	0xbdf6e529	-0.120554276
43	0xbbfd43cd	-0.0077290297
44	0x3d7e16ab	0.062033337
45	0xbe48a5f2	-0.19594553
46	0xbeca76a4	-0.3954364
47	0xbd7ef2d8	-0.062243313
48	0xbc25f2e8	-0.010128714
49	0x3dfd541c	0.12369558
50	0x3cc99f8a	0.024612207
51	0xbe51a4bd	-0.20472999
52	0x3cfb756a	0.030695636
53	0xbe67258e	-0.2257292
54	0xbe861179	-0.26185206
55	0xbd2a4024	-0.041565076
56	0x3dbbbeaa	0.09167226
57	0xbeb10654	-0.3457514
58	0xbe3e9d9b	-0.18614809
59	0x3e23b502	0.15987018
60	0x3c40d6ad	0.011769933
61	0x3c8a82d0	0.01690808
62	0xbdaabca5	-0.08336762
63	0xbe2e2337	-0.17005621
64	0xbe5f7eb2	-0.21825674
65	0xbdbf1b35	-0.09331361
66	0xbe974c4e	-0.29550403
67	0x3dac80b5	0.084229864
68	0x3e041030	0.128968
69	0x3d47680c	0.04868321
70	0xbd890417	-0.06690233
71	0xba1f70da	-0.0006082185
72	0xbd1417ab	-0.036155384
73	0xbce6f6e8	-0.028193906
74	0x3ddd2286	0.107976004
75	0xbe05404b	-0.13012807
76	0xbc8567fa	-0.016284931
77	0xbdba3cc6	-0.09093623
78	0xbe0f3574	-0.13985234
79	0x3e1121b6	0.14173016
80	0xbe2784fa	-0.1635932
81	0x3e1f59e7	0.15561639
82	0x3c34885e	0.011018841
83	0x3d18a4d6	0.037266575
84	0x3d94118d	0.0722991
85	0x3d669dbb	0.056302767
86	0x3e82dd52	0.2555948
87	0x3d644b96	0.055736147
88	0x3e1fef8f	0.15618728
89	0x3d0c8d04	0.03431417
90	0x3e0354a5	0.12825258
91	0x3dc249ea	0.09486754
92	0xbc53e379	-0.012932652
93	0x3dc9bd6a	0.09850581
94	0xbe4b027f	-0.19825171
95	0x3e94f7f4	0.29095423
96	0x3dad4e1f	0.08462166
97	0x3eb64230	0.35597372
98	0x3e8f72f2	0.28017384
99	0xbd5f92fd	-0.05458354
100	0xbe308c80	-0.17241096
101	0xbe917853	-0.28412113
102	0x3e199ad8	0.15000474
103	0xbe57f8c7	-0.21090995
104	0xbd4fd437	-0.050739493
105	0x3dfae87c	0.12251374
106	0x3eac8d60	0.3370161
107	0x3e8060c2	0.2507382
108	0xbcefc0f0	-0.029266804
109	0x3ceea953	0.029133474
110	0xbd35b9a4	-0.044366494
111	0xbe0ceb62	-0.13761666
112	0xbd84f971	-0.0649289
113	0x3ca00b6d	0.019536698
114	0x3e2576fe	0.16158673
115	0xbdf54386	-0.1197577
116	0x3e1aa84b	0.15103261
117	0x3df5cc2e	0.12001835
118	0xbbb8bc3c	-0.0056376737
119	0xbd1b1a49	-0.037866864
120	0xbdad76f7	-0.08469956
121	0xbe08c819	-0.13357581
122	0x3e9c7395	0.30556932
123	0x3c7cf048	0.015438147
124	0xbdabd0f0	-0.08389461
125	0x3dc835d6	0.097758934
126	0xbcd7c963	-0.026341146
127	0xbdd4c7ef	-0.10389697
128	0x3e16b1fb	0.14716332
129	0x3bcc1e34	0.0062291864
130	0x3dfc8716	0.12330453
131	0xbe329629	-0.17440094
132	0x3e40333b	0.18769543
133	0x3e1a0e31	0.15044476
134	0xbdbaabfb	-0.09114834
135	0x3d864066	0.06555252
136	0x3db0f51f	0.08640503
137	0x3d4f945d	0.0506786
138	0xbda31d1c	-0.079645365
139	0x3d8802e4	0.06641176
140	0xbdd47e7c	-0.103756875
141	0x3d9b8433	0.075935744
142	0xbeaab075	-0.3333775
143	0x3e2b08b3	0.16702537
144	0x3e8fda01	0.2809601
145	0x3e02359e	0.12715766
146	0x3cc3dc05	0.023908624
147	0xbe5286ca	-0.2055923
148	0xbe655d60	-0.22398901
149	0x3d1f62dd	0.038912643
150	0x3d96c1bc	0.07361171
151	0x3e2506e0	0.16115904
152	0xbd210a88	-0.039316684
153	0xbedfe0ed	-0.43726292
154	0xbd50fb63	-0.05102099
155	0x3e87bd00	0.26511383
156	0x3c9d1464	0.019174762
157	0x3e8dfc7f	0.27731702
158	0xbbbff0dc	-0.00585757
159	0xbe258d82	-0.16167262
160	0x3e9b02eb	0.30275664
161	0xbb8d2393	-0.0043072193
162	0xbdd4b9e0	-0.10387015
163	0xbdbbe44e	-0.09174405
164	0xbda3c2f4	-0.07996169
165	0xbe96d98c	-0.2946285
166	0xbd88d4f0	-0.066812396
167	0x3e82bcb3	0.2553459
168	0xbe4d9f94	-0.20080405
169	0x3d81cab8	0.06337494
170	0x3c7e06de	0.015504567
171	0x3d311941	0.043236975
172	0xbe1a02d8	-0.15040147
173	0xbc75b23b	-0.014996107
174	0x3cc16f69	0.023612695
175	0xbdab5a75	-0.08366863
176	0x3e7b5624	0.24544579
177	0xbe291576	-0.16512093
178	0xbe8e2d36	-0.27768868
179	0xbbb86f07	-0.00562847
180	0x3d19e868	0.037575155
181	0xbdb7c87a	-0.08973785
182	0x3d118fb9	0.035537455
183	0xbbd81009	-0.0065937084
184	0xbd3ee787	-0.04660752
185	0x3b72ad25	0.0037029472
186	0xbd0c7a77	-0.03429648
187	0xbdef1bb4	-0.11675206
188	0x3e9cc703	0.30620584
189	0x3edf1269	0.43568733
190	0xbeb8914b	-0.3604835
191	0xbec80182	-0.3906365
192	0x3cac15f5	0.021006564
193	0x3e2de612	0.16982296
194	0x3e2227dc	0.15835518
195	0x3e25d137	0.1619309
196	0xbd980228	-0.07422286
197	0x3e8afa26	0.27143973
198	0x3d606327	0.05478206
199	0x3bfdbf77	0.0077437717
200	0xbd298db6	-0.04139491
201	0x3e0bed18	0.13664663
202	0xbdd4a14d	-0.10382328
203	0x3e9f473b	0.31109032
204	0xbb21b953	-0.0024677112
205	0x3d9fe67c	0.07807633
206	0x3e0d48a2	0.13797238
207	0xbb0eaeaf	-0.00217716
208	0xbd76757a	-0.060170628
209	0xbe39b379	-0.1813487
210	0x3dea73c6	0.11447863
211	0xbec607e0	-0.38677883
212	0x3e388a74	0.18021566
213	0xbd1cb95f	-0.03826272
214	0xbd14aa66	-0.036295317
215	0x3e85f7b1	0.26165536
216	0x3df34d21	0.118799455
217	0xbe73c8e5	-0.23807104
218	0xbdb9ab0f	-0.0906583
219	0xbd8812b6	-0.06644194
220	0xbe03235f	-0.12806462
221	0x3cc8907b	0.024482956
222	0x3e6c9da2	0.23107007
223	0x3d901971	0.070361026
224	0x3eace23a	0.33766347
225	0xbdac6eb3	-0.08419552
226	0x3c946eae	0.018119182
227	0xbd85a355	-0.06525294
228	0x3d87c7f4	0.06629935
229	0xbd48dc00	-0.049037933
230	0xbea27ba8	-0.31734967
231	0xbcb71cd0	-0.022352606
232	0xbd17df5b	-0.037078243
233	0xbb8b8100	-0.0042573214
234	0xbc314ab1	-0.0108210305
235	0xbdca0768	-0.09864694
236	0x3df5cc7f	0.12001895
237	0xbf09d634	-0.53842473
238	0xbdff403a	-0.12463422
239	0xbf14c274	-0.5810921
240	0x3db8901d	0.090118624
241	0x3d74b690	0.059744418
242	0x3d8c6394	0.068549305
243	0xbcd29dc0	-0.025709987
244	0x3db596af	0.08866631
245	0x3cd0dffc	0.02549743
246	0x3e962ca8	0.29330945
247	0x3dcc2d94	0.09969631
248	0xbda5977a	-0.080855325
249	0x3e0afeff	0.13573836
250	0xbd91e324	-0.07123402
251	0x3e3885a7	0.18019734
252	0xbcf95c0c	-0.0304394
253	0xbc9eafcc	-0.019370936
254	0xbe6da4b7	-0.23207365
255	0xbaf39cf4	-0.0018586204

mlp.0.bias f4 [512]
0	0xbe0c592a	-0.13705888
1	0xbe7be06b	-0.24597327
2	0xbf5871cf	-0.8454866
3	0xbec46240	-0.3835621
4	0x3e634603	0.22194676
5	0xbf258df2	-0.64669716
6	0xbe2e3b00	-0.17014694
7	0xbe04fb3c	-0.12986463
8	0xbd9c1a05	-0.0762215
9	0xbe7b7afa	-0.2455863
10	0xbf1ee839	-0.62073094
11	0xbe8eb0c3	-0.27869233
12	0xbefc8cd1	-0.49326184
13	0x3d7e5bbc	0.062099203
14	0xbf2b96fa	-0.67027247
15	0xbe03e7db	-0.12881415
16	0xbf05d8ec	-0.5228412
17	0xbea37e68	-0.31932378
18	0xbe2602c9	-0.16212
19	0xbc4c57e5	-0.012472128
20	0xbf0fc324	-0.56157136
21	0xbe6d50bb	-0.23175327
22	0xbe96d78c	-0.29461324
23	0xbed08046	-0.40722865
24	0xbe98f19d	-0.29871836
25	0xbe64296f	-0.2228143
26	0x3e63aeb4	0.22234613
27	0xbda97af3	-0.08275404
28	0xbe037a45	-0.12839611
29	0xbe965a28	-0.2936566
30	0xbeba5d2a	-0.36399204
31	0xbeb5999c	-0.35468757
32	0xbea0ed6c	-0.3143114
33	0xbecb5932	-0.39716488
34	0xbeace7dc	-0.33770645
35	0xbefd18b5	-0.49432912
36	0xbecfecde	-0.40610403
37	0xbe999dc3	-0.30003175
38	0xbf19422e	-0.5986661
39	0xbe9c2a97	-0.30501243
40	0xbf5f75b0	-0.8728895
41	0xbf4e0317	-0.80473465
42	0xbeff1fd1	-0.49828961
43	0xbbaa1623	-0.005190627
44	0xbdb17dca	-0.086665705
45	0xbf3430e5	-0.7038711
46	0xbe80e994	-0.25178206
47	0x3e5b2e7a	0.21404448
48	0xbe6e6415	-0.23280366
49	0xbf552906	-0.8326572
50	0xbd805798	-0.06266707
51	0xbf5acf2d	-0.85472375
52	0xbf09fddc	-0.53902984
53	0xbeedc768	-0.46441197
54	0xbedda12e	-0.43287033
55	0xbf737b24	-0.9510977
56	0xbe8d7700	-0.27629852
57	0xbecd983a	-0.40155202
58	0xbeac367a	-0.33635312
59	0xbee3e1df	-0.44508263
60	0xbec5650a	-0.3855365
61	0xbd9cddaf	-0.0765947
62	0xbda7cfe0	-0.08193946
63	0x3d27bf78	0.040954083
64	0xbe8caf52	-0.2747751
65	0xbe777f86	-0.2416974
66	0xbef2663a	-0.47343618
67	0xbe38fdc7	-0.18065558
68	0x3dfbaa28	0.12288314
69	0xbe3fe552	-0.18739823
70	0x3d808868	0.062760174
71	0xbd0a188b	-0.033714812
72	0xbe86e683	-0.2634774
73	0xbf423dfb	-0.75875825
74	0xbe988aee	-0.29793495
75	0xbe7934bc	-0.24336523
76	0xbe400a38	-0.18753898
77	0xbe498d30	-0.19682765
78	0xbeae5306	-0.34047717
79	0xbeef4410	-0.46731615
80	0xbf5f8671	-0.87314516
81	0x3d9b2dc1	0.07577086
82	0xbf336738	-0.70079374
83	0xbd44b2c4	-0.048022047
84	0xbf04433f	-0.5166511
85	0xbf245371	-0.6418982
86	0xbf0e4a6a	-0.55582297
87	0xbe966f80	-0.29381943
88	0xbf0353b5	-0.512996
89	0x3cddefad	0.027091825
90	0xbf4096d3	-0.7523014
91	0xbf1546cb	-0.58311146
92	0x3d8d6e7c	0.06905839
93	0xbe83d85e	-0.25751013
94	0xbeff822e	-0.49904007
95	0xbe8b205d	-0.2717313
96	0xbc2f6c0b	-0.010706912
97	0xbe4dab69	-0.20084919
98	0xbf02e6fb	-0.511337
99	0xbf6b8089	-0.91993004
100	0xbf0cd12d	-0.55006677
101	0xbe6478ca	-0.22311702
102	0xbf008647	-0.5020489
103	0xbf1fdd56	-0.62447107
104	0xbdc6cec8	-0.09707409
105	0xbe3a845e	-0.18214557
106	0xbead3da2	-0.33836085
107	0xbf3c8aac	-0.73649096
108	0xbf31e1e7	-0.69485325
109	0x3d9c12c6	0.07620768
110	0xbf5aae5d	-0.8542231
111	0xbf519955	-0.8187459
112	0xbed25536	-0.41080636
113	0xbea7a1f7	-0.32740757
114	0xbdff3f27	-0.12463217
115	0xbec04216	-0.3755042
116	0xbe0dd96d	-0.13852473
117	0xbe331089	-0.17486776
118	0x3b3452b6	0.002751512
119	0xbf2eedeb	-0.68331784
120	0xbed66c38	-0.4187944
121	0xbef55468	-0.4791596
122	0x3d4d9cfa	0.050198533
123	0xbe29e70a	-0.1659204
124	0xbec8b1a3	-0.39198026
125	0xbe55c236	-0.20874867
126	0xbe9f6d09	-0.31137875
127	0xbf03ce33	-0.5148651
128	0xbef7581c	-0.4830941
129	0xbef1c0c5	-0.47217384
130	0xbdf012e3	-0.11722352
131	0xbf1e910f	-0.6194009
132	0xbecabac8	-0.39595628
133	0xbe14dc0e	-0.14537069
134	0xbde9cfc8	-0.11416584
135	0xbf38a178	-0.7212138
136	0xbdf2377d	-0.1182699
137	0x3e7358d8	0.2376436
138	0xbec605bc	-0.3867625
139	0xbf36f87e	-0.7147292
140	0xbe787c20	-0.242661
141	0xbd60040f	-0.05469137
142	0xbe90048c	-0.2812847
143	0xbed5c9ee	-0.41755623
144	0xbf51a0de	-0.8188609
145	0xbe75918f	-0.23981307
146	0xbe102cdb	-0.14079611
147	0xbf0cae9b	-0.54953927
148	0xbf00ef17	-0.5036482
149	0xbe89f850	-0.2694726
150	0xbd811c0e	-0.06304179
151	0xbec1c974	-0.3784901
152	0xbed91d31	-0.42405084
153	0xbf0105f6	-0.5039972
154	0xbe30e8db	-0.17276327
155	0xbf02db54	-0.5111592
156	0xbedc6e30	-0.43052816
157	0xbe411c29	-0.18858398
158	0xbe1bcda5	-0.15215166
159	0xbf35e37c	-0.7105024
160	0x3dc77303	0.097387336
161	0xbd7eaa0f	-0.0621739
162	0xbf0cf9bd	-0.5506857
163	0xbe75935d	-0.23981996
164	0xbf90869d	-1.1291081
165	0xbe98600d	-0.2976078
166	0xbf1d5aaa	-0.6146647
167	0xbd6aec31	-0.057354156
168	0xbf1ab2a6	-0.60428846
169	0xbf133b18	-0.57512045
170	0xbeb9466b	-0.36186537
171	0xbecbdf8a	-0.39818984
172	0xbf6d6576	-0.9273294
173	0xbe9e9e71	-0.30980256
174	0xbf1796f5	-0.5921472
175	0xbe78be35	-0.24291308
176	0x3e3dc561	0.18532325
177	0xbeb1d494	-0.34732497
178	0xbdacb6bf	-0.084332936
179	0xbf06ad97	-0.5260863
180	0x3e2154e3	0.15755038
181	0xbdb3e5d9	-0.08784074
182	0xbf356c24	-0.70868134
183	0xbd108bda	-0.035289623
184	0xbc94f8da	-0.018185068
185	0xbe61c060	-0.22046041
186	0xbefdcade	-0.49568838
187	0xbeaf3998	-0.34223628
188	0xbed91e9d	-0.4240617
189	0xbe105b31	-0.14097287
190	0x3e5884f1	0.21144463
191	0xbeb23189	-0.34803417
192	0xbe9b0463	-0.30276784
193	0xbd33b6d2	-0.043875523
194	0x3ddf0009	0.108886786
195	0xbec499a1	-0.3839846
196	0x3d7b2b32	0.06132049
197	0xbf07180e	-0.5277108
198	0x3b914677	0.004433449
199	0x3e6b825d	0.22998948
200	0xbe4b5ff3	-0.1986082
201	0x3d1d3c9b	0.038387876
202	0x3d7950de	0.060868137
203	0xbd923898	-0.07139701
204	0xbf4a773c	-0.7908819
205	0xbe903cb0	-0.281713
206	0x3cd7f549	0.026362078
207	0xbf3acbf7	-0.72967476
208	0xbe0765e7	-0.13222466
209	0xbf1044a3	-0.5635473
210	0xbe2e44eb	-0.17018478
211	0x3bde0e0c	0.006776577
212	0xbe92ea57	-0.28694412
213	0xbeb14605	-0.34623733
214	0xbec48edd	-0.38390246
215	0xbf44a97c	-0.7682111
216	0x3dbee12d	0.093202926
217	0xbd7a1068	-0.061050802
218	0xbf10ca48	-0.56558657
219	0xbe1b1951	-0.15146376
220	0xbf03a154	-0.5141804
221	0xbede2e54	-0.4339472
222	0xbec3b2f0	-0.38222456
223	0xbeb0be68	-0.34520268
224	0xbd0f64f2	-0.03500838
225	0xbec0a7c1	-0.37627986
226	0xbc37ec33	-0.011225748
227	0xbe8ac520	-0.2710352
228	0xbe1a6656	-0.150781
229	0xbed90806	-0.42388934
230	0xbef81b5a	-0.48458368
231	0x3e2533cb	0.16133039
232	0x3bab8ca4	0.0052352715
233	0xbedaab2b	-0.42708716
234	0xbf3fe4cd	-0.749585
235	0xbea6c279	-0.32570246
236	0xbeb6b1b3	-0.3568245
237	0xbe4c7580	-0.19966698
238	0xbf3de082	-0.74170697
239	0xbf0b3dc4	-0.5439112
240	0xbde432cb	-0.111425005
241	0xbef54c47	-0.47909757
242	0x3deb314c	0.11484012
243	0xbe54b258	-0.20771158
244	0xbd10bb30	-0.035334766
245	0xbdc6e643	-0.09711888
246	0xbf06d7ba	-0.5267292
247	0xbeba12cf	-0.36342475
248	0xbf4cd548	-0.8001294
249	0xbf612d45	-0.879597
250	0xbe60fe07	-0.21971904
251	0xbe39f959	-0.18161525
252	0xbeed6edc	-0.46373641
253	0xbe42d2e0	-0.19025755
254	0x3d96206e	0.07330404
255	0xbf2a69ea	-0.6656786

mlp.2.weight f4 [256, 512]
0	0xbce76312	-0.028245483
1	0x3ccc6459	0.024950193
2	0x3da325ea	0.07966216
3	0xbdc43191	-0.095797665
4	0xbe968e51	-0.29405454
5	0x3dbe8a90	0.093037724
6	0xbdecabad	-0.11556182
7	0x3e16b7c2	0.14718536
8	0xbd3678f3	-0.04454894
9	0xbe1b6a1e	-0.15177199
10	0x3dfc4c2b	0.123192154
11	0xbd8c19a7	-0.0684083
12	0x3eb5e27d	0.3552436
13	0xbdfd3efe	-0.123655304
14	0x3d3760b5	0.04476996
15	0xbe928301	-0.28615573
16	0xbd995046	-0.07486014
17	0xbbe1dd82	-0.006892861
18	0x3cc8867b	0.024478188
19	0xbe95614d	-0.29175797
20	0xbd40cd29	-0.047070656
21	0xbc824d5c	-0.015906028
22	0xbd2b2495	-0.041782934
23	0x3e16afec	0.14715546
24	0x3e388944	0.18021113
25	0xbca89eb5	-0.02058349
26	0xba86f9e8	-0.0010297867
27	0xbe8a1f72	-0.26977116
28	0xbdda6dc2	-0.10665466
29	0x3cf29892	0.029613767
30	0xbe10afd6	-0.14129576
31	0xbd9586fb	-0.07301136
32	0x3e286d40	0.16447926
33	0x3e2cb3cb	0.1686546
34	0x3d326467	0.043552782
35	0x3b3317b5	0.0027327363
36	0xbe686839	-0.22696008
37	0x3ccdcc40	0.025121808
38	0xbdf8bde5	-0.121455945
39	0xbb7fb5db	-0.0039018306
40	0x3e840108	0.25782037
41	0x3e8a3fe7	0.2700188
42	0x3dcc2357	0.09967678
43	0xbdcaefc2	-0.099090114
44	0xbe388eb0	-0.18023181
45	0x3e2cd561	0.16878273
46	0x3d936c9d	0.07198451
47	0xbdf5581a	-0.11979695
48	0xbe92ec56	-0.28695935
49	0x3b3800ef	0.0028076728
50	0x3da63b10	0.08116734
51	0xbe1e2060	-0.15442038
52	0x3e106fa2	0.14105085
53	0xbcc77e07	-0.024352087
54	0x3d979082	0.074006096
55	0x3d8b84b9	0.06812424
56	0x3dbabcf9	0.09118075
57	0x3dd9e6f5	0.10639755
58	0x3df390e2	0.118928686
59	0x3e85acd1	0.2610841
60	0xbe036ab4	-0.12833673
61	0xbdf5df0d	-0.12005434
62	0x3e57fda5	0.21092851
63	0xbdb74d25	-0.08950261
64	0xbd5a6c53	-0.053325962
65	0xbdad8577	-0.08472722
66	0xbc38cb19	-0.011278891
67	0x3d38443c	0.04498695
68	0xbd7e55be	-0.06209349
69	0xbdaed630	-0.08536947
70	0xbdcb1c75	-0.09917537
71	0xbe20d2f2	-0.15705469
72	0xbdda2871	-0.10652245
73	0xbe7cda7e	-0.24692723
74	0xbdc1d7a3	-0.094649576
75	0xbca63843	-0.0202905
76	0x3d5c106c	0.0537266
77	0x3e02c92b	0.12772052
78	0xbe681c57	-0.22667061
79	0x3b483fb6	0.0030555553
80	0x3d95483c	0.07289168
81	0xbd968bd6	-0.0735089
82	0x3d9c1c9a	0.07622643
83	0xbe2d5559	-0.16927089
84	0xbcf8dcde	-0.030378755
85	0x3d610ae6	0.054942034
86	0xbddb968e	-0.107220754
87	0x3c1b5b51	0.009482221
88	0x3e15d920	0.14633608
89	0xbe09a9d9	-0.13443698
90	0x3ba3b2ca	0.0049956786
91	0x3e12327c	0.14277071
92	0xbc99e2ef	-0.018784968
93	0x3e2dbb60	0.16966009
94	0x3d9bfba4	0.07616356
95	0x3d77f686	0.060537837
96	0x3e242099	0.1602806
97	0x3ad5fa47	0.0016325199
98	0xbd81ed8a	-0.06344135
99	0x3e190c34	0.14946061
100	0xbe9d8f9f	-0.30773637
101	0x3d043107	0.03227332
102	0x3e18d7ce	0.14926073
103	0xbd454fcc	-0.048171803
104	0x3ccf5a38	0.025311574
105	0xbe075980	-0.13217735
106	0x3ced0782	0.028934244
107	0xbe138cd9	-0.14409198
108	0x3daf9be3	0.08574655
109	0xbe8469e7	-0.25862047
110	0x3de7787f	0.1130228
111	0xbd24d816	-0.040245138
112	0x3e060905	0.13089378
113	0x3d58cea4	0.052931443
114	0x3b36d11f	0.0027895642
115	0x3d483b8d	0.048884917
116	0x3d2420ae	0.04007023
117	0xbe66b4a4	-0.22529846
118	0xbe5bbe03	-0.21459202
119	0xbd3b44a4	-0.045719758
120	0x3cb86a7d	0.022511715
121	0xbd4321b1	-0.047639553
122	0xbe0ac34c	-0.13551062
123	0xbe02ec2e	-0.12785408
124	0xbc88bec4	-0.016692527
125	0xbdfc05c3	-0.123057865
126	0xbe4d7ad6	-0.2006639
127	0xbe641114	-0.2227214
128	0x3ca4ad24	0.020102091
129	0x3c826e1c	0.015921645
130	0x3d1df2d4	0.038561657
131	0xbd403fcc	-0.04693584
132	0x3c48319c	0.012218859
133	0xbd70d94b	-0.058800977
134	0xbe71e996	-0.23624262
135	0x3d9aa506	0.07551007
136	0x3ded404f	0.115845315
137	0xbe17fabe	-0.14841744
138	0x3e134c6a	0.14384618
139	0x3d8af815	0.06785599
140	0x3e826ce8	0.25473714
141	0x3c3dcbe6	0.011584258
142	0xbe8f4cf0	-0.27988386
143	0xbd6a41e8	-0.05719176
144	0x3e213aa6	0.15745029
145	0xbde26f75	-0.11056415
146	0xbdd6a512	-0.104807034
147	0x3e90e365	0.28298488
148	0x3ca57feb	0.020202598
149	0xbe513cbd	-0.20433326
150	0xbde9ec36	-0.11422007
151	0xbe3e7b58	-0.1860174
152	0x3d13b8ca	0.0360649
153	0xbdc6204c	-0.09674129
154	0xbec0e3fa	-0.37673932
155	0xbe46eb1f	-0.19425629
156	0x3e113767	0.1418129
157	0x3e16defd	0.14733501
158	0xbe3d960b	-0.18514268
159	0x3e8ad777	0.27117512
160	0xbe043bf7	-0.129135
161	0xbd74cafc	-0.059763893
162	0xbde178bd	-0.11009357
163	0x3e3f4f69	0.18682636
164	0x3daa3f8f	0.08312904
165	0x3db8a506	0.09015851
166	0x3e753b66	0.2394844
167	0x3c09cf90	0.008411303
168	0x3d10ab8a	0.035319842
169	0x3bca5b60	0.0061754435
170	0xbc3608a4	-0.0111104585
171	0xbb93abee	-0.0045065796
172	0x3da991f9	0.08279795
173	0xbe896e7b	-0.26842102
174	0x3d78e43f	0.060764547
175	0xbe07d908	-0.13266385
176	0x3c5541e7	0.013016201
177	0x3b3ef1c2	0.0029135798
178	0x3df590dc	0.1199052
179	0xbe6e16a8	-0.2325083
180	0xbe17bf87	-0.14819156
181	0xbd31900e	-0.043350272
182	0x3d1c1dde	0.03811442
183	0x3dda4c9f	0.106591456
184	0xbd867fbf	-0.065673344
185	0xbdf1ca8c	-0.11806211
186	0xbe270dd2	-0.16313866
187	0xbe2cfd58	-0.16893518
188	0x3d71d861	0.059044246
189	0xbe067d10	-0.13133645
190	0xbe01ebbd	-0.12687583
191	0xbdace8f0	-0.08442867
192	0x3cbecc90	0.023290902
193	0xbd417e7d	-0.04723977
194	0xbe391d5c	-0.18077606
195	0x3d5d3de5	0.054014105
196	0xbe3e5403	-0.18586735
197	0x3dd3ddd2	0.10345043
198	0x3b8f456d	0.00437229
199	0xbe09a7ea	-0.1344296
200	0x3d9718cd	0.07377777
201	0xbca23e62	-0.019805137
202	0xbd912845	-0.07087759
203	0x3d2833a3	0.04106487
204	0xbcf02992	-0.029316697
205	0xbe275d60	-0.16344213
206	0xbe086a8b	-0.13321893
207	0x3d49a994	0.049233988
208	0x3d179e83	0.037016403
209	0x3e161d52	0.14659622
210	0xbe747373	-0.23872165
211	0xbe863335	-0.26210943
212	0xbe5aea9b	-0.21378557
213	0x3e57fa7f	0.2109165
214	0x3da4ab47	0.08040481
215	0x3e770c17	0.24125706
216	0xbe0d7b03	-0.13816456
217	0x3d2f878a	0.04285387
218	0x3de8c125	0.113649644
219	0xbecd775c	-0.40130126
220	0xbe40f34e	-0.18842813
221	0xbdb2dba6	-0.08733301
222	0x3e817304	0.25283062
223	0x3df8e446	0.12152915
224	0x3c9a3157	0.018822355
225	0x3e237f0c	0.15966433
226	0xbdd2feb8	-0.1030249
227	0xbc8d600b	-0.01725771
228	0xbe4052b3	-0.18781547
229	0xbe5ad640	-0.21370792
230	0xbd81a8a2	-0.06330992
231	0xbe47a4b8	-0.19496429
232	0x3c33ba72	0.010969745
233	0x3e8f4817	0.27984688
234	0x3d8b852f	0.06812512
235	0x3e81fdeb	0.25389037
236	0x3e3b6256	0.18299231
237	0xbd89578a	-0.0670615
238	0x3dc98e9f	0.09841656
239	0xbdab3f83	-0.08361723
240	0xbdefd20c	-0.11709985
241	0x3d345b9c	0.044032678
242	0xbeab165c	-0.33415496
243	0xbdaa45a1	-0.08314062
244	0x3c67e198	0.014152907
245	0x3e867cb5	0.2626702
246	0x3de67708	0.11253172
247	0xbe229185	-0.15875824
248	0x3dbe6f4e	0.092985734
249	0x3da32aec	0.07967171
250	0x3d49e7ab	0.0492932
251	0x3d8cc420	0.068733454
252	0x3e61179a	0.2198166
253	0xbd2def2e	-0.042464428
254	0xbbc31e40	-0.005954534
255	0x3dea7771	0.11448563

mlp.2.bias f4 [256]
0	0xbe6464a1	-0.22304012
1	0xbee5cbf9	-0.4488218
2	0xbda6fd06	-0.08153729
3	0xbdc5c1a4	-0.09656075
4	0x3cda917f	0.026680706
5	0xbec00c97	-0.37509605
6	0x3ca01d68	0.019545272
7	0xbe805111	-0.2506185
8	0xbe4bc18f	-0.19898055
9	0xbdad90fe	-0.08474921
10	0xbecb3133	-0.39685974
11	0xbcf2f157	-0.029656095
12	0xbe75a906	-0.23990259
13	0xbec266dc	-0.379691
14	0xbe16a8c7	-0.14712821
15	0xbee34719	-0.4439018
16	0xbee3fce2	-0.44528872
17	0xbe5591f8	-0.20856464
18	0xbed776e3	-0.4208289
19	0xbe6c9a26	-0.23105678
20	0xbebbbd7b	-0.36668
21	0xbd7b3a86	-0.06133511
22	0xbe467b21	-0.19382907
23	0x3c3de264	0.01158962
24	0xbebb58e1	-0.36591247
25	0xbead097a	-0.33796293
26	0xbe310bc1	-0.1728964
27	0xbe0403b2	-0.12892035
28	0xbdbfd0b4	-0.09365979
29	0xbdc3f753	-0.09568658
30	0xbea38e44	-0.31944478
31	0xbceca28a	-0.028886098
32	0xbef5fa53	-0.48042545
33	0xbea823ce	-0.32839817
34	0xbe39673e	-0.1810579
35	0xbdcb5d94	-0.09929958
36	0xbebd3821	-0.36956885
37	0xbe992981	-0.29914477
38	0xbeb00e66	-0.34385985
39	0xbe8319b0	-0.25605536
40	0xbdbc1241	-0.09183169
41	0xbda9f0b5	-0.08297864
42	0xbd5463d6	-0.051853023
43	0xbe785d96	-0.2425445
44	0xbe748eb0	-0.23882556
45	0xbeb9a2d0	-0.3625703
46	0xbea1a7a9	-0.31573227
47	0xbe90d78d	-0.28289452
48	0xbe8619aa	-0.26191455
49	0xbef9b43f	-0.4877033
50	0xbebcdfbc	-0.36889446
51	0xbe971baf	-0.29513308
52	0xbe284c77	-0.16435419
53	0xbdccccaa	-0.09999974
54	0xbeb04a63	-0.34431753
55	0xbe72e949	-0.23721804
56	0xbe83c376	-0.25735062
57	0xbe870ebf	-0.26378438
58	0xbedfe0fb	-0.43726334
59	0xbedc66a4	-0.4304706
60	0xbe188da2	-0.14897779
61	0xbeee36df	-0.46526238
62	0xbdbe4d55	-0.09292094
63	0xbeb7d1cd	-0.35902253
64	0xbe9af265	-0.30263057
65	0xbe673abd	-0.22581
66	0xbe71c52b	-0.2361037
67	0xbe8a62dc	-0.2702855
68	0xbe863f61	-0.2622023
69	0xbe0c4668	-0.13698733
70	0x3e04bba8	0.1296221
71	0xbe85ddbf	-0.2614574
72	0xbe27e051	-0.16394164
73	0xbe89d22e	-0.26918167
74	0xbed42f94	-0.4144255
75	0xbeba8b5f	-0.36434457
76	0xbead9ef6	-0.3391034
77	0xbe99a370	-0.30007505
78	0xbe900a4c	-0.28132856
79	0xbe01a321	-0.12659885
80	0x3d9b0f4d	0.07571278
81	0xbec170d7	-0.37781402
82	0xbdd6d522	-0.104898706
83	0xbda2b67a	-0.07944961
84	0xbe6980fe	-0.22803113
85	0xbe84285e	-0.25812048
86	0xbd96df67	-0.07366829
87	0xbe509921	-0.20370914
88	0xbda18c8f	-0.078881375
89	0xbed4c0e3	-0.4155341
90	0xbecaf970	-0.3964343
91	0xbc9706cb	-0.018435856
92	0xbe05d500	-0.13069534
93	0x3aea6d96	0.0017885442
94	0xbedaf2cb	-0.4276336
95	0xbe65366c	-0.22384042
96	0x3c52ac72	0.012858497
97	0xbe7dafc9	-0.24774088
98	0xbe2a58a3	-0.16635375
99	0xbec25012	-0.37951714
100	0xbe516e0a	-0.20452133
101	0xbe78d598	-0.2430023
102	0xbec91fda	-0.39282113
103	0xbe947eca	-0.29002982
104	0xbe862f50	-0.26207972
105	0xbe4c1c88	-0.19932759
106	0xbe111391	-0.1416762
107	0xbe896993	-0.2683836
108	0xbe9fcba0	-0.3121004
109	0xbe791742	-0.24325278
110	0xbdeefadd	-0.11668942
111	0xbd393ce0	-0.04522407
112	0xbe9dee3a	-0.30845815
113	0xbef97c6b	-0.48727736
114	0xbea1090d	-0.31452218
115	0xbe98db92	-0.2985502
116	0xbe616c59	-0.22013988
117	0xbdc32c2e	-0.09529911
118	0xbe83bbf5	-0.25729337
119	0xbe07823e	-0.13233277
120	0xbe8d902e	-0.27649063
121	0xbe4dc628	-0.20095122
122	0xbe60b706	-0.21944818
123	0xbe89fffd	-0.26953116
124	0xbded01c8	-0.11572605
125	0xbe6fcaae	-0.2341716
126	0xbe9fa116	-0.31177586
127	0xbee78d1b	-0.45224842
128	0xbe9a909e	-0.3018846
129	0xbe077178	-0.13226879
130	0xbf022381	-0.50835425
131	0xbe2b8183	-0.16748624
132	0xbe77ef95	-0.24212487
133	0xbe87a822	-0.26495463
134	0xbd274ce2	-0.040844806
135	0xbe1c9278	-0.15290248
136	0xbec13e55	-0.37742868
137	0xbe9686ed	-0.29399815
138	0xbe57429c	-0.21021503
139	0xbed805d8	-0.42191958
140	0xbe04b4cf	-0.12959598
141	0xbedd6937	-0.43244335
142	0xbea52f01	-0.32262424
143	0xbdeb1c59	-0.11480016
144	0xbe567d60	-0.20946264
145	0xbe65442f	-0.22389291
146	0xbedaf5ce	-0.4276566
147	0xbe544739	-0.20730294
148	0xbe7bd09a	-0.24591294
149	0xbdc4f5bf	-0.09617185
150	0xbd64dbbe	-0.055873625
151	0xbeca341e	-0.39492887
152	0xbee13e4d	-0.43992844
153	0xbe278418	-0.16358984
154	0xbdf3ea73	-0.11909952
155	0xbe5aea9d	-0.2137856
156	0xbeda3107	-0.4261553
157	0xbe2e47a3	-0.17019515
158	0xbe675a67	-0.2259308
159	0xbeba78e4	-0.36420357
160	0xbe76f30a	-0.2411615
161	0xbd9b1bc0	-0.07573652
162	0xbd7b5232	-0.061357684
163	0xbe933373	-0.2875019
164	0xbcbce42d	-0.023058021
165	0xbefddb68	-0.49581456
166	0x3ccc5a53	0.024945414
167	0xbead5ec5	-0.33861366
168	0xbe9a712f	-0.30164477
169	0xbe713a14	-0.23557311
170	0xbd255b28	-0.040370136
171	0xbe58b6fe	-0.21163556
172	0xbec34868	-0.3814118
173	0x3c5ca046	0.013465947
174	0xbf18f700	-0.5975189
175	0xbdc60ceb	-0.09670433
176	0xbea8645a	-0.32889062
177	0xbe9309ba	-0.28718358
178	0x3c15f40a	0.009152422
179	0xbe8baf9b	-0.27282414
180	0xbe91ad23	-0.28452405
181	0xbef73672	-0.48283726
182	0xbe1172d6	-0.14203963
183	0xbe34b22d	-0.17646094
184	0xbf0310a5	-0.5119727
185	0xbdb54638	-0.08851284
186	0xbe08c943	-0.13358025
187	0xbf0778a9	-0.5291849
188	0xbe44d94b	-0.19223516
189	0xbc7c2f13	-0.015392083
190	0xbe885dc8	-0.2663405
191	0xbe7d89be	-0.24759576
192	0xbe0d51f7	-0.13800798
193	0xbdc35055	-0.095368065
194	0xbde1e63c	-0.11030242
195	0xbe4cf8c2	-0.20016769
196	0xbe276453	-0.16346864
197	0xbd921d3c	-0.07134482
198	0xbe58f38f	-0.2118666
199	0xbdc912fe	-0.098180756
200	0xbec88968	-0.39167333
201	0xbe1afc86	-0.15135393
202	0xbeb5ac36	-0.3548295
203	0xbec3738e	-0.381741
204	0xbdacf1f4	-0.084445864
205	0xbdb312a6	-0.08743791
206	0xbef0308b	-0.46912035
207	0xbebcd974	-0.36884654
208	0xbe87c1ec	-0.26515138
209	0xbde55f42	-0.111998096
210	0xbf2aff08	-0.66795397
211	0xbe38455a	-0.17995206
212	0xbe8c0077	-0.27344105
213	0x3d28d17f	0.041215416
214	0xbeb7f9a2	-0.35932642
215	0xbe9005b7	-0.2812936
216	0xbdf9a068	-0.12188798
217	0xbe85eab9	-0.26155642
218	0xbe03e25f	-0.12879322
219	0xbe8db770	-0.27679014
220	0xbe5fa2c6	-0.21839437
221	0xbeb8a0d2	-0.36060196
222	0xbe8c42a8	-0.27394605
223	0xbe027f3f	-0.12743853
224	0x3dd6d0b3	0.10489025
225	0xbec8b5d8	-0.39201236
226	0xbea3d831	-0.32000878
227	0xbd8988e5	-0.06715564
228	0xbe18522e	-0.14875099
229	0xbef76809	-0.4832156
230	0xbe2b0f6d	-0.16705103
231	0xbe6358a4	-0.22201782
232	0xbe2cf2b2	-0.16889456
233	0xbeac2a8b	-0.33626208
234	0xbc8f5838	-0.01749812
235	0x3bac9130	0.005266331
236	0xbe0fb404	-0.14033514
237	0xbe550aaf	-0.20804857
238	0xbebee1aa	-0.37281543
239	0xbeb5541c	-0.35415733
240	0xbe8c878b	-0.2744716
241	0xbe9e549e	-0.30923933
242	0xbe580e79	-0.21099271
243	0xbea67b68	-0.32516026
244	0xbdd0e967	-0.10200768
245	0xbe95c2e6	-0.29250258
246	0xbe6b6f58	-0.22991693
247	0xbe7789ff	-0.24173735
248	0xbe8399fc	-0.25703418
249	0xbe9553b8	-0.29165435
250	0xbe652296	-0.22376475
251	0xbe95f0e9	-0.29285362
252	0xbe660989	-0.22464575
253	0xbde04efd	-0.10952566
254	0xbe750f74	-0.23931676
255	0xbe33ba3c	-0.17551512

mlp.4.weight f4 [128, 256]
0	0xbb25393c	-0.0025211116
1	0xbcf2227d	-0.02955746
2	0x3deff1fe	0.11716078
3	0x3d147303	0.036242496
4	0xbcb3673a	-0.021899808
5	0x3dfbb269	0.122898884
6	0x3ceadfca	0.028671164
7	0xbcddab64	-0.027059264
8	0x3d1932d6	0.037401997
9	0xbe0dfc41	-0.13865758
10	0x3d520597	0.051274862
11	0xbd1a21fe	-0.037630074
12	0x3df3c56e	0.11902891
13	0x3e275853	0.16342287
14	0x3dab7a37	0.0837292
15	0xbe02ff5e	-0.12792727
16	0x3e6f95d1	0.23396994
17	0x3cc26fa5	0.023734877
18	0xbc6e8bc7	-0.014559693
19	0xbde90d1e	-0.11379455
20	0x3d9b44d5	0.07581488
21	0xbdaff9d3	-0.08592572
22	0x3d52f639	0.051504347
23	0x3d17d37f	0.037066933
24	0x3d3bf915	0.04589184
25	0xbd5b65ef	-0.05356401
26	0xbe5689c0	-0.20950985
27	0x3d99abdf	0.07503485
28	0xbd19cfed	-0.03755181
29	0x3d31e0be	0.04342722
30	0x3e0b4fc9	0.13604654
31	0x3dd42a6c	0.10359654
32	0xbd909223	-0.07059123
33	0x3e26ea78	0.1630038
34	0x3d9e1b5c	0.07720062
35	0xbcbfc9b7	-0.023411615
36	0x3ce2a307	0.027665628
37	0xbd9aba38	-0.0755505
38	0xbc2c708e	-0.010524882
39	0xbd9501eb	-0.072757564
40	0x3e0dc863	0.13845973
41	0xbcaf85ef	-0.02142617
42	0xbdd7c54e	-0.1053568
43	0xbd12d06b	-0.035843294
44	0x3e281c50	0.1641705
45	0x3d059a4c	0.032617852
46	0xbd5e11fa	-0.054216363
47	0xbdc5a9ff	-0.09651565
48	0x3b893c84	0.004188122
49	0x3e177600	0.14791107
50	0xbdbdc21b	-0.09265538
51	0x3e00709a	0.12542954
52	0xbe02d3b1	-0.12776066
53	0x3d142c34	0.036174968
54	0xbd44d3bb	-0.048053484
55	0x3bda88d6	0.006669144
56	0xbd5018b6	-0.050804816
57	0x3cfc1584	0.030771978
58	0xbe50bc79	-0.20384397
59	0x3dcbabb3	0.099448584
60	0xbd0f8931	-0.035042945
61	0xbd81e64e	-0.06342755
62	0xbd5f2b7f	-0.05448484
63	0x3dbeeed8	0.093228996
64	0x3abccd10	0.0014404375
65	0x3e000db7	0.12505232
66	0xbe2ca1df	-0.16858624
67	0xbd9feb19	-0.07808513
68	0xbbcd3ba2	-0.0062632123
69	0x3d80323f	0.06259584
70	0xbd9a9ca6	-0.075494096
71	0xbd32d909	-0.043664012
72	0x3c7acd1b	0.01530769
73	0x3dbb4f99	0.091460414
74	0xbe48dcb8	-0.19615448
75	0x3de16811	0.11006177
76	0x3e5d2ad2	0.21598366
77	0x3da10dee	0.07863985
78	0xba7a2ec3	-0.0009543711
79	0xbe487384	-0.19575316
80	0x3d7df21c	0.06199847
81	0x3d660707	0.056159046
82	0xbe10a793	-0.14126424
83	0xbd781842	-0.06057001
84	0xbd7b93b9	-0.061420176
85	0x3d1f7418	0.038929075
86	0x3e0a754e	0.1352131
87	0x3e169a1f	0.1470723
88	0xbe61b6ed	-0.22042437
89	0xbe69f4f6	-0.22847351
90	0x3e256cfb	0.16154854
91	0x3c3059f2	0.010763632
92	0xbd36a981	-0.044595245
93	0xbb91efa7	-0.0044536176
94	0x3dc7ad45	0.097498454
95	0x3c4d93a8	0.012547411
96	0xbe184989	-0.14871801
97	0xbcf08314	-0.029359378
98	0x3d06fa1b	0.032953363
99	0x3e178e62	0.14800408
100	0xbe07b3d5	-0.13252194
101	0xbdf07d5a	-0.11742659
102	0xbcf021d3	-0.029313004
103	0x3dceaa07	0.10091024
104	0x3df28185	0.1184111
105	0xbd86dcde	-0.06585096
106	0x3dbc5a19	0.09196872
107	0xbc22bd5d	-0.009932843
108	0x3dd5ca6e	0.10439001
109	0x3d485c9a	0.048916437
110	0xbe08bea6	-0.13353977
111	0xbdc28bd8	-0.09499329
112	0x3d346963	0.044045817
113	0x3d9cb471	0.07651604
114	0x3e3ed45d	0.18635698
115	0xbd9e6ed2	-0.07735981
116	0x3e037fe3	0.12841754
117	0xbddd1cd7	-0.107965164
118	0xbe012d05	-0.1261483
119	0xbc8a77cc	-0.016902827
120	0xbd3405cc	-0.04395084
121	0xbd110630	-0.03540629
122	0x3d963bbd	0.07335613
123	0xbd946a37	-0.072468214
124	0x3d8a9d14	0.067682415
125	0xbcbfa364	-0.02339334
126	0x3d1ef612	0.03880889
127	0x3d217b85	0.039424438
128	0x3de739a0	0.11290288
129	0x3d6c597c	0.057702526
130	0x3e0d45e2	0.1379619
131	0xbe2b6b71	-0.16740204
132	0x3e0c8039	0.13720788
133	0x3d8573cc	0.06516227
134	0xbd25bac2	-0.04046131
135	0xbcc4c855	-0.024021307
136	0xbd6bce1b	-0.057569604
137	0x3e2fe1a6	0.17175922
138	0x3cc6f72b	0.02428778
139	0xbd8f73a9	-0.07004482
140	0xbdae6985	-0.0851622
141	0x3e6226bb	0.22085087
142	0xbd86184e	-0.065476045
143	0x3e3a946b	0.1822068
144	0x3c75d658	0.015004717
145	0x3d7776f6	0.060416184
146	0xbd0f0fe4	-0.034927264
147	0xbe959af2	-0.29219776
148	0xbd48c2c7	-0.04901388
149	0xbd1a9bf7	-0.037746396
150	0xbe1b29ea	-0.15152708
151	0xbe7e8191	-0.24854113
152	0x3c985f78	0.01860021
153	0xbcd1d55a	-0.02561443
154	0x3c6824c1	0.014168919
155	0xbcf627bc	-0.030048244
156	0x3c9b562f	0.018961994
157	0xbd9f91cb	-0.0779148
158	0x3ba46b17	0.005017649
159	0x3e093725	0.13399942
160	0xbd695bc4	-0.05697228
161	0xbd2ee23c	-0.042696223
162	0xbe1e0514	-0.15431625
163	0xbd0be249	-0.03415135
164	0x3d7c0efd	0.06153773
165	0x3d4545ba	0.0481622
166	0xbe351151	-0.17682387
167	0xbdff0e20	-0.12453866
168	0xbddc206c	-0.107483715
169	0xbd5e7d04	-0.054318443
170	0x3c90285a	0.017597366
171	0xbd687304	-0.056750312
172	0x3d3390b3	0.043839168
173	0xbc88a4fa	-0.01668023
174	0x3d9a7cfe	0.075433716
175	0xbc229b81	-0.00992477
176	0xbe28d979	-0.16489209
177	0x3b4b9b43	0.0031067885
178	0x3e123076	0.14276299
179	0xbe13dec0	-0.14440441
180	0xbd5208db	-0.051277976
181	0xbe1ef2d3	-0.15522318
182	0xbc75fb78	-0.015013568
183	0xba57ac63	-0.0008227287
184	0x3dc2a39d	0.09503863
185	0x3d88bc90	0.066765904
186	0xbd70b8af	-0.058769878
187	0x3cc741b8	0.02432333
188	0xbc366855	-0.011133273
189	0xbdd21609	-0.10258109
190	0x3d9487a9	0.072524376
191	0x3d1efab8	0.038813323
192	0xbe865cde	-0.26242727
193	0xbdd2b31b	-0.10288068
194	0x3d083fac	0.033263847
195	0xbd84d56a	-0.06486018
196	0xbdb342e4	-0.08752993
197	0x3cbb36c5	0.022853265
198	0xbd412665	-0.047155757
199	0xbcf37bd2	-0.029722128
200	0x3db3c369	0.08777506
201	0xbde5a73d	-0.11213539
202	0x3e55a454	0.20863467
203	0x3e771d51	0.24132277
204	0x3c48763f	0.012235223
205	0x3ca6a86f	0.020343987
206	0x3e31664a	0.17324176
207	0xbe16fad2	-0.14744118
208	0x3b0e7843	0.0021739162
209	0xbd7490eb	-0.059708517
210	0xbd923c1c	-0.07140371
211	0xbe318dae	-0.17339203
212	0xbd6a49ab	-0.05719916
213	0x3cbde0bf	0.023178456
214	0xbdb836a9	-0.089948006
215	0xbe15e58e	-0.1463835
216	0x3da406c1	0.08009101
217	0x3e7ada47	0.24497329
218	0xbdfb632a	-0.122747734
219	0xbd493b12	-0.0491286
220	0xbd6c8409	-0.057743106
221	0xbc2b7963	-0.010465953
222	0x3db0b7a4	0.08628777
223	0xbd50b546	-0.050954126
224	0xbce7fc59	-0.02831857
225	0xbd883ffd	-0.0665283
226	0x3da5da0c	0.0809823
227	0xbe01a310	-0.1265986
228	0x3da68215	0.0813028
229	0xbdbd04a5	-0.092294015
230	0xbc38d578	-0.011281364
231	0xbcb3f564	-0.021967597
232	0x3d6206a1	0.055182103
233	0xbe5b986f	-0.21444868
234	0x3d69582d	0.056968857
235	0x3d0ecf57	0.034865703
236	0xbe35a5f4	-0.17739087
237	0x3be8375a	0.0070866765
238	0x3c10ca57	0.008837304
239	0xbdb31fc0	-0.0874629
240	0xbc478c4d	-0.012179446
241	0xbc71132a	-0.014714042
242	0x3d25549b	0.04036389
243	0xbe62d12b	-0.22150104
244	0xbdc1bd78	-0.094599664
245	0x3d782c16	0.06058892
246	0xbd7e7415	-0.062122423
247	0x3d8a8bcf	0.067649476
248	0xbdc66383	-0.09686949
249	0x3d64fef9	0.055907223
250	0x3d955e20	0.072933435
251	0xbdb0fd2c	-0.08642039
252	0x3da415d5	0.08011977
253	0x3ca75d3b	0.020430198
254	0xbe24e304	-0.16102225
255	0x3d013120	0.03154099

mlp.4.bias f4 [128]
0	0x3da65c24	0.08123043
1	0xbdc73950	-0.09727728
2	0xbea0c1ee	-0.31397957
3	0xbe9a854b	-0.3017982
4	0xbde950ef	-0.1139239
5	0xbe49b74c	-0.19698828
6	0xbe1b873b	-0.15188305
7	0xbc1ab544	-0.009442631
8	0xbd8f12cf	-0.06986009
9	0xbc87314e	-0.016503002
10	0xbe91ec52	-0.2850061
11	0x3c7df40d	0.015500081
12	0xbd27d608	-0.0409756
13	0xbc98f0fe	-0.018669602
14	0xbd382064	-0.044952765
15	0xbda09459	-0.07840795
16	0xbe544e1f	-0.20732926
17	0xbcff9e6d	-0.031203473
18	0xbdb61f32	-0.08892669
19	0xbe2a439f	-0.16627358
20	0x3dba0d57	0.090845756
21	0xbdfcb6e3	-0.123395704
22	0xbe503e89	-0.20336355
23	0xbee48c5f	-0.44638345
24	0xbe63c8b1	-0.22244526
25	0x3d725a77	0.059168305
26	0xbe8400f4	-0.25781977
27	0xbdf61c92	-0.12017168
28	0xbe1bb38e	-0.15205213
29	0xbe37fa70	-0.17966628
30	0x3d89f999	0.0673706
31	0xbd301e88	-0.042997867
32	0x3e0b15d7	0.1358255
33	0x3ca562f4	0.020188786
34	0xbe02053a	-0.12697306
35	0xbc810bc2	-0.015752677
36	0x3daa39a9	0.08311779
37	0x3cc9408e	0.024566915
38	0x3da301ed	0.07959352
39	0xbcf2298d	-0.029560829
40	0x3e13698b	0.1439573
41	0xbe2266e7	-0.15859567
42	0x3d85c4eb	0.065317
43	0xbe030245	-0.12793835
44	0xbc4be65d	-0.01244506
45	0x3d4e22f7	0.050326314
46	0xbedec1e3	-0.435073
47	0xbed011d9	-0.40638617
48	0xbd94118e	-0.07229911
49	0x3d87c732	0.0662979
50	0xbdad1939	-0.084520765
51	0xbe1c94fa	-0.15291205
52	0xbe0f7145	-0.14008053
53	0xbec66620	-0.3874979
54	0xbe257af8	-0.1616019
55	0xbdf68696	-0.12037389
56	0x3d58895d	0.052865375
57	0xbc1fb16f	-0.009746893
58	0x3c83f98f	0.01611021
59	0xbee87edd	-0.4540929
60	0xbb7cad95	-0.0038555611
61	0x3daeedde	0.08541463
62	0x3d2da2b9	0.042391513
63	0xbd83a4c5	-0.06427912
64	0xbe3d715f	-0.18500279
65	0xbe685ed7	-0.22692429
66	0x3d8f9759	0.07011289
67	0xbe46153d	-0.1934404
68	0x3c968407	0.018373502
69	0xbe75aa99	-0.23990859
70	0xbdd2c6b6	-0.10291807
71	0xbe3b8df9	-0.18315877
72	0xbe95cf79	-0.29259852
73	0x3da276f9	0.079328485
74	0xbe4b1c9d	-0.19835134
75	0xbed89549	-0.42301396
76	0xbe9edb22	-0.3102656
77	0xbe72c8e9	-0.23709454
78	0xbd6f16e6	-0.058371447
79	0xbd9beecf	-0.076139085
80	0x3c909842	0.017650727
81	0xbe5c3707	-0.21505366
82	0xbebf308a	-0.3734172
83	0xbec04b7a	-0.37557584
84	0x3d5a854c	0.053349778
85	0xbda3440a	-0.07971962
86	0xbf02dafe	-0.51115406
87	0xbdab25fe	-0.08356856
88	0x3d42be48	0.047544748
89	0xbccb031a	-0.024781752
90	0x3d8ac3e8	0.067756474
91	0xbdae801b	-0.08520528
92	0xbe0f0167	-0.13965379
93	0xbdf27b3a	-0.1183991
94	0x3e3e1c45	0.18565471
95	0xbed3b9d1	-0.41352704
96	0xbe840fbf	-0.25793263
97	0x3d9f7d33	0.07787552
98	0xbe03fb41	-0.12888815
99	0xbe475f59	-0.19469966
100	0x3e3844a7	0.17994939
101	0xbeabc9d7	-0.3355243
102	0xbe159374	-0.1460703
103	0x3da7918d	0.081820585
104	0x3db6aa35	0.08919183
105	0xbe532ed2	-0.2062333
106	0x3c5a14d3	0.013310629
107	0xbe0decfb	-0.13859932
108	0xbc9fb7b2	-0.019496772
109	0xbd3eab71	-0.046550218
110	0xbe946853	-0.28985843
111	0xbe896585	-0.26835266
112	0xbe9e7192	-0.30946022
113	0xbd456225	-0.0481893
114	0xbdc5ff49	-0.096678324
115	0xbea63a81	-0.3246651
116	0xbe0572a7	-0.13032018
117	0xbcf0a646	-0.02937616
118	0xbdb67235	-0.08908502
119	0x3b09e3a4	0.0021040225
120	0xbe162974	-0.1466425
121	0xbad943fb	-0.0016576046
122	0xbe503074	-0.20330983
123	0xbe679f48	-0.22619355
124	0xbdf7d7c0	-0.12101698
125	0x3e25d199	0.16193236
126	0xbd0407d1	-0.032234017
127	0x3e4a391e	0.19748351

mlp.6.weight f4 [24, 128]
0	0x3bc80b60	0.0061048716
1	0x3b527c66	0.0032117604
2	0xbd2d96b4	-0.04238005
3	0xbd41e80e	-0.047340445
4	0x3d4b5c5a	0.04964862
5	0xbe588054	-0.21142703
6	0xbd02c862	-0.03192938
7	0x3c01e296	0.007927557
8	0xbc101374	-0.0087937005
9	0x3d8c2491	0.06842912
10	0x3b295c82	0.0025842492
11	0x3d0dbae6	0.03460207
12	0xbd4dddf2	-0.05026049
13	0xbdc1206a	-0.094300106
14	0xbb50d945	-0.0031867784
15	0x3c988f19	0.018622922
16	0xbd3767ca	-0.044776715
17	0x3d4a47da	0.04938493
18	0x3cc53d11	0.02407697
19	0xbd514778	-0.05109355
20	0x3cc75913	0.024334466
21	0x3d95e2d1	0.073186524
22	0xbd10271b	-0.035193544
23	0x3d908d87	0.07058244
24	0x3c480842	0.012209
25	0xba002d43	-0.0004889557
26	0x3ddb25a0	0.10700536
27	0xbdd083ac	-0.101813644
28	0x3c11260c	0.008859169
29	0xbdc7a079	-0.097474046
30	0xbc9e0709	-0.019290464
31	0xbd699b41	-0.057032827
32	0xbce25870	-0.02763006
33	0x3d5b41e7	0.053529646
34	0x3c8efe6a	0.017455298
35	0xbd17f8fc	-0.037102684
36	0x3cc0b293	0.02352265
37	0xbcbaa34b	-0.022782942
38	0xbca8f57c	-0.020624869
39	0x3d1aae1c	0.0377637
40	0xbcf7b8ec	-0.030239545
41	0x3ba54584	0.0050436873
42	0x3da559a8	0.08073741
43	0x3e15b2c6	0.14618978
44	0x3b80d123	0.003931181
45	0x3dd93184	0.106051475
46	0x3c94b8bd	0.018154496
47	0xbdb7f198	-0.08981627
48	0xbcac2ea5	-0.021018336
49	0x3da012cd	0.07816086
50	0xbd847319	-0.06467266
51	0x3d944774	0.07240191
52	0x3dec500b	0.115387045
53	0x3aab5289	0.0013070862
54	0x3d9e1553	0.07718911
55	0xbde627b0	-0.112380385
56	0x3d3cc424	0.04608549
57	0xbc25e7ab	-0.010126035
58	0xbcbbaa3d	-0.022908324
59	0xbca165fd	-0.019701952
60	0xbde6dcb5	-0.11272565
61	0x3b54c042	0.0032463227
62	0x3d5e7551	0.0543111
63	0x3da89df4	0.08233252
64	0x3dacd016	0.08438127
65	0x3d299f5f	0.041411754
66	0xbba9307a	-0.0051632496
67	0xbd56a91b	-0.052407365
68	0x3c66d6c1	0.014089287
69	0x3d39f290	0.04539734
70	0xbc3605dd	-0.011109796
71	0xbdc9ca6a	-0.098530605
72	0x3dbc566d	0.09196172
73	0x3d943f34	0.072386175
74	0xbb175dbf	-0.0023096649
75	0x3d266a51	0.040628735
76	0xbafdf821	-0.0019376316
77	0x3c54c4a6	0.012986338
78	0x3d61380d	0.054985095
79	0xbd587713	-0.052847933
80	0xbd81b4df	-0.063333265
81	0xbcdcb82b	-0.026943287
82	0xbdc380df	-0.095460646
83	0x3da12791	0.07868875
84	0x3d326269	0.043550882
85	0x3d8f0c4b	0.069847666
86	0xbe42d064	-0.19024807
87	0x3c2b53fc	0.010457035
88	0xbdd67930	-0.104723334
89	0xbcb1c76e	-0.02170154
90	0xbd84507f	-0.06460666
91	0x3c6b2271	0.014351473
92	0xbc52d2bd	-0.012867627
93	0xbb659d8a	-0.0035036528
94	0xbdb4f90e	-0.08836566
95	0x3e21c5e8	0.15798151
96	0xbdc22887	-0.09480386
97	0x3ac8ee65	0.0015329836
98	0xbde1c29d	-0.11023448
99	0x3d1ec597	0.038762655
100	0xbdb0e868	-0.08638078
101	0x3c953dd0	0.018217951
102	0xbcd4c968	-0.025974944
103	0x3d94da0a	0.0726815
104	0xbc201613	-0.009770888
105	0xbdf3c918	-0.1190359
106	0x3af682a6	0.0018807247
107	0x3c9a2f5e	0.018821415
108	0x3c219894	0.009863038
109	0x3ccb9486	0.024851095
110	0x3d532cf5	0.051556546
111	0xbd863df2	-0.06554784
112	0x3d247488	0.040150195
113	0xbcb96956	-0.022633236
114	0xbcdfc77e	-0.027316805
115	0x3d166137	0.036713805
116	0xbd2e8f26	-0.042616986
117	0x3d96e91e	0.07368682
118	0x3c645301	0.013935805
119	0xbd6786c8	-0.05652502
120	0xbd1dfcef	-0.038571294
121	0x3d9e66f2	0.07734479
122	0x3d2de96a	0.04245893
123	0xbb1d8cd3	-0.0024040237
124	0xbe2a93b7	-0.16657911
125	0x3ceb311d	0.028709942
126	0x3d4f522c	0.050615475
127	0x3c2d5821	0.010580094
128	0xbc99290a	-0.018696327
129	0xbb5151e2	-0.0031939675
130	0xbcb4bbdd	-0.022062236
131	0x3e08058a	0.13283363
132	0x3cd45f17	0.025924249
133	0x3d2122de	0.039339893
134	0xbdfb560f	-0.12272274
135	0xbd92630a	-0.071477965
136	0x3d190ff4	0.03736873
137	0x3b9ea33b	0.004841236
138	0xbd2e0e16	-0.042493902
139	0x3d1d3cc3	0.038388025
140	0x3cdb135c	0.02674263
141	0xbdd4dae2	-0.10393311
142	0xbbf4b487	-0.0074678096
143	0xbe09e0af	-0.13464616
144	0xbc87f4ea	-0.016596276
145	0xbd03f465	-0.032215495
146	0xbde0f11e	-0.109834895
147	0x3b6042bb	0.0034219462
148	0xbd2acd11	-0.041699473
149	0x3e55d6c6	0.20882711
150	0xbc286b84	-0.01027954
151	0xbcdbe88e	-0.02684429
152	0xbd0307dc	-0.031989917
153	0x3d77becb	0.06048469
154	0xbdcef684	-0.10105613
155	0xbe0dd238	-0.13849723
156	0x3d56b749	0.052420888
157	0xbc6e0e1d	-0.014529732
158	0x3e7c2022	0.24621633
159	0x3c48f718	0.012265943
160	0xbc899718	-0.01679568
161	0xbd35b759	-0.044364307
162	0xbd9afc2a	-0.07567628
163	0x3d753c47	0.059871938
164	0x3d9a2a06	0.075275466
165	0x3d7755e5	0.06038465
166	0xb8445de2	-4.6817477e-05
167	0x3e073e5b	0.1320738
168	0xba3bbadd	-0.00071613287
169	0xbcdade4f	-0.026717333
170	0xbce409f0	-0.02783677
171	0xbdbbde40	-0.0917325
172	0x3d39f34a	0.045398034
173	0x3d52fcd4	0.051510647
174	0xbdc22a2c	-0.094807
175	0xbe1e6282	-0.15467265
176	0xbde53d18	-0.11193293
177	0x3dcdd251	0.1004988
178	0x3c78cc49	0.015185424
179	0x3dc459d7	0.09587448
180	0x3c807e09	0.015685098
181	0x3b13d1d1	0.002255548
182	0xbd145cc0	-0.036221266
183	0xbdf293bb	-0.118445836
184	0xbd1ecf4c	-0.038771912
185	0xbd02bb2d	-0.031916786
186	0xbca04b7b	-0.019567242
187	0xbcf7a06e	-0.030227866
188	0x3c3ab76b	0.011396269
189	0x3d3dca1d	0.04633533
190	0xbd5c4a1b	-0.05378161
191	0x3cc8a1bd	0.024491185
192	0x3dd08409	0.10181434
193	0xbe84a709	-0.25908688
194	0x3b638ada	0.0034720213
195	0xbbfe16a4	-0.007754164
196	0x3ce99f16	0.02851824
197	0x3d6ab934	0.05730553
198	0xbd5ffb10	-0.05468279
199	0xbd8c0fd5	-0.06838957
200	0x3c80c409	0.015718477
201	0xbd3cc7b7	-0.0460889
202	0x3d50f023	0.051010262
203	0xbdceb037	-0.10092204
204	0xbcc8d9fd	-0.024518007
205	0x3de9571d	0.11393569
206	0x3c897122	0.016777579
207	0x3d24901a	0.04017649
208	0x3c828cfd	0.01593637
209	0xbdd3310c	-0.10312089
210	0x3e771c52	0.24131897
211	0x3dab4b88	0.08364016
212	0xbe87f142	-0.26551253
213	0x3d800528	0.062509835
214	0x3de671a5	0.11252145
215	0x3d788d0f	0.0606814
216	0xbc0836af	-0.008313819
217	0xbc2fca04	-0.010729317
218	0xbd36f68e	-0.044668727
219	0x3bba9a2f	0.0056946496
220	0x3d918f21	0.07107378
221	0x3d8ee240	0.069767475
222	0x3dd1aa22	0.102375284
223	0x3d9c61a9	0.07635815
224	0x3cbc71ac	0.023003422
225	0x3d0f422d	0.03497522
226	0xbe28be40	-0.16478825
227	0xbc66a493	-0.0140773235
228	0xbd8525b4	-0.06501332
229	0xbd03e0b1	-0.032196704
230	0xbc6e22cb	-0.0145346625
231	0x3caafe6f	0.020873277
232	0xbd91dea4	-0.071225435
233	0x3d4caf3d	0.049971808
234	0xbc2770e5	-0.010219787
235	0xbde0268a	-0.10944851
236	0x3cddddc4	0.027083285
237	0xbcaaa9e1	-0.020832958
238	0xbca81a14	-0.020520248
239	0xbcc731ec	-0.024315797
240	0xb902769b	-0.0001244195
241	0x3e1d5677	0.15365015
242	0xbd4eb871	-0.050468866
243	0x3d4ebebb	0.050474863
244	0xbe1d8047	-0.15380965
245	0xbd0d4339	-0.034487937
246	0xbd0c2496	-0.03421458
247	0x3da6152d	0.08109508
248	0xbd6037d3	-0.054740738
249	0x3d1da02d	0.038482834
250	0x3b07d57f	0.0020726619
251	0xbd976196	-0.0739166
252	0x3e28acf6	0.1647223
253	0x3be8c70d	0.007103807
254	0xbc0c0a24	-0.00854734
255	0xbc8bcd40	-0.017065644

mlp.6.bias f4 [24]
0	0xbdb473fd	-0.088111855
1	0x3d112cbd	0.035443056
2	0x3cf51bcb	0.02992048
3	0x3d8c8821	0.06861902
4	0x3c29980b	0.010351191
5	0x3c26416c	0.010147434
6	0xbdb1f8df	-0.086900465
7	0x3dc14109	0.094362326
8	0x3b8b0704	0.0042427797
9	0x3dcfe186	0.10150437
10	0x3d01c0ca	0.031678
11	0x3d811521	0.06302858
12	0xbecb0358	-0.3965099
13	0xbe8331a5	-0.25623813
14	0xbea64c6d	-0.32480183
15	0xbebbb81d	-0.36663905
16	0xbe8bec74	-0.27328837
17	0xbef08653	-0.4697748
18	0xbeca43e0	-0.3950491
19	0xbebb4994	-0.36579573
20	0xbea18715	-0.31548372
21	0xbeb0f446	-0.34561366
22	0xbea3d5d7	-0.31999084
23	0xbe9b5770	-0.30340147
